audio/model/model.pth (torch, 825142 bytes, 77 tensors)

encoder.e_layer_one.weight f4 [16, 1, 5]
00000000: 197e a03d 3847 f8be 7a0c d7bd 109c ea3e
00000010: e839 83bc c8e6 a8bd c5f3 c7be 7c52 e7bd
00000020: f8e3 d43d a58e 3bbe 33db d7be 7e3c 02bf
00000030: 22f8 f2bd 9f6a 8d3d 8fd5 34be 8a05 e9bd
00000040: b8a5 c93d 0eaf 123e 7da4 033f 06cf be3e
00000050: 6c05 88be 8bc3 a1bd fe28 d3be f756 2cbe
00000060: 2f5d cb3e 8be4 a4bb 0ce9 8cbe 99db 4abe
00000070: bb50 9abe e4ff 67bd 5aba 06bf b79e f6bd
00000080: bc8b a83e c93c 4a3e 50c5 d7bc c59b 343d
00000090: 6370 143e 127b a13e d3c0 95bd 506e 03be
000000a0: ed06 cbbd 5ff6 003e 510f 4b3e 81bd be3e
000000b0: b1e6 99bd 8847 fc3d 6f2a d43e dc53 833e
000000c0: 5f88 a73d 9253 c0be afe2 973e 9df9 293f
000000d0: d53d a1bd ea0c 9ebe 1402 813d e9e4 be3e
000000e0: aac1 c53e 1fe3 203e a6c9 22be 45c2 323e
000000f0: c576 033f 397b a9be 3cf6 d2be 4b48 253c
00000100: cdc2 d23e 7c10 dfbd eab5 b9be 4908 5fbe
00000110: 7d99 753e 86a7 ef3c 92f0 8cbe 8532 5fbc
00000120: 6391 a7be 3ffb f3bd 4127 25bd d3b1 073e
00000130: 8026 cc3e 9931 dcbe 3949 5a3e 5552 b13e
0.07836551 -0.48491836 -0.105004266 0.4582219 -0.016018823 -0.08247143 -0.3905317 -0.112950295
0.10395044 -0.18316133 -0.42159423 -0.50873554 -0.11863734 0.06905102 -0.17659591 -0.113780096
0.098460615 0.1432459 0.51422864 0.3726732 -0.26566637 -0.07898625 -0.41242212 -0.1683005
0.3971953 -0.0050321273 -0.2752155 -0.19810332 -0.30139717 -0.05664052 -0.526281 -0.12041991
0.3291911 0.1974975 -0.026339203 0.044093866 0.14495997 0.31539208 -0.07312169 -0.1283505
-0.0991343 0.12593983 0.19830061 0.37253955 -0.07514704 0.12318331 0.41438624 0.25649917
0.081803076 -0.3756376 0.29665133 0.66396505 -0.07873122 -0.30869228 0.062992245 0.3728402
0.38624316 0.1571164 -0.15897235 0.1745692 0.513531 -0.33101824 -0.41203487 0.010088037
0.41164246 -0.10891816 -0.36271602 -0.21780504 0.23984332 0.029254686 -0.2752729 -0.013622885
-0.3272811 -0.11913156 -0.04032064 0.13251428 0.39873123 -0.4300659 0.21316995 0.34633127

encoder.e_layer_one.bias f4 [16]
00000000: 4d60 d83d 528d 813e a005 47be 7d5d c6be
00000010: 052b dbbe 185e 463d e75a bd3e 0a03 ab3e
00000020: b43f a73e 35b7 e03e f67f b7be 9031 203e
00000030: bf24 ad3d c9d6 6e3e c06e 643e dc4a 9b3e
0.10565243 0.2530313 -0.1943574 -0.387432 -0.4280626 0.04842958 0.36983415 0.33400756
0.3266579 0.43889776 -0.35839814 0.15643907 0.084542744 0.23324122 0.22307873 0.3033055

encoder.e_layer_two.weight f4 [32, 16, 5]
00000000: ca29 ac3e 1b24 bfbd ff89 dc3d e4cc 37be
00000010: e90d d63c c929 dc3d 0dc2 11be 5a24 1b3d
00000020: d900 13be 46a8 8c3d afd8 24bb 3ba2 5abd
00000030: 93eb 1f3e 64f7 82be e973 1f3e aa50 113c
00000040: 1aa0 2ebe 4a44 42bd 4a96 a6bd 9490 053e
00000050: 402a 87bd 91fb 593e 496c bcbd 001c ef3d
00000060: a5f1 913c dfdd e4bd 9d3a 8dbd 391f fdbc
00000070: 0f5e 643d ca14 1bbd 6bd6 f23d 6fe3 463d
00000080: 6362 593e a00b 7ebd adc2 ac3c 255d f63b
00000090: f278 bbbc 5146 cabd 6a07 a13b a3c8 0f3e
000000a0: 3e94 a03a 937a 09be 60e7 2d3e 3b8f 01be
000000b0: 7619 063e f73b f83d 8c27 223d 17fe 9b3d
000000c0: 0d92 6ebd 807e 5bbd 0184 ff3b da59 a93e
000000d0: 9298 8bbe a02b ff3d c39a 9abe 8a63 20be
000000e0: a0f3 5c3e 2f34 81be cc26 d73d 011d 5cbe
000000f0: a313 8f3e f98b e23d 2f79 6c3e 49d3 383e
00000100: 7c68 f23c 261f b73c 610d d3bd 9af6 163e
00000110: c05a e9bd 0395 78bb 2137 b53d b0c3 3cbd
00000120: d7b4 323d 47cc 093e b902 1ebc 4cc2 4abd
00000130: 79f1 ae3d 91af b1bc aee2 553e 6cb2 f2bd
00000140: 4753 ed3d 7de8 40bd 68dd 613c de73 513e
00000150: d281 753c f405 eb3d ba89 d6bb d1da 80bd
00000160: bc68 df3d 675b d83d e789 4c3b f14e e1bc
00000170: 61fe 333d 5245 b63d df3b ccbd 0e04 0a3d
00000180: b788 443d 4fe5 75bd d54b 223e ad24 8c3d
00000190: 148d 4b3e 2bbe 11be 8ad6 803e c23d a93e
000001a0: bde0 903e 3a63 99bd b627 17bc 54eb 323e
000001b0: 0c54 92bb 1462 8c3d a960 343c 04fd f2bc
000001c0: 757e 77be 55e5 093e ba0d c8bb fd4c 24bc
000001d0: 0c7e cc3c 7ee2 cebc 10a3 19be d7af c8bd
000001e0: 295d eebc edfa a4bb 86e7 0bbe d2e4 eb3c
000001f0: 00df 143d ad12 b5bd 0613 313e 6bbc eebd
00000200: 1d39 c3bd 5977 08bd 4ef5 98bd 885f bc3d
00000210: c9d9 3f3e 5ce7 1abe 92f4 e73d 67cf 78be
00000220: 3528 903d 92a6 deba 7ba5 58be 3d1d 54bd
00000230: a05c 263e 00f1 a3be 3e07 a93d ebaa e9bd
00000240: 6f98 17bd b766 113e dff4 f8bd 4156 5cbd
00000250: d491 b53d 1826 31bd 237f 4d3d 2a6e 273d
00000260: 3324 703d 10b8 e83d f053 d2bc ba6d d2bc
00000270: 20cf 6fbe 4d91 6c3c c717 2c3d 8d17 80ba
00000280: b36f a83d 1e22 863d 56a4 e5bc 4bd8 a63d
00000290: ee2c e0bc 4acd 2f3c 86f8 17be f61d 1b3d
000002a0: 521d aebd ba07 ea3c b004 023c 70b8 a0bd
000002b0: 4a71 ccbd 896f 07be 6c6d 1bbe 1f52 563e
000002c0: 7481 2f3d a9c2 333c 5a4a c73b bdba a63d
000002d0: 526b adbc 408b 15be 4239 04be 0e35 8abc
000002e0: 4462 ccbd a794 063c c943 65bc 2acb 6ebd
000002f0: bf86 c1bd f3ae f2bd 41b9 793c d91a 92bd
00000300: 11ba 06bd 5a7e 093d 2688 15bd 5be1 233d
00000310: ce22 e73d 3b7d 1bbd d149 033e 9095 8e3d
00000320: 10d7 d93d ed88 2e3d aada d73d fb59 523d
00000330: 39a7 353d efc1 e53d ae9f 113e 8af5 cf3d
00000340: 45b9 873d 596e c23d 9371 0d3d 1000 5f3d
00000350: b4f7 833d 94d4 093e b3ad 503d 46b9 cd3d
00000360: f9e8 a03c ffc4 233e 5bed 213e df88 ac3d
00000370: 0704 153c fcbf 51bd d926 73bc 2685 ef3c
00000380: ac23 523d 22db e3bd d7e9 9bbc ef38 25bc
00000390: 5776 fabd aa39 9c3b e894 13be 359f 0cbe
000003a0: 7d18 12be b9cb f2bc cd76 85bd 657f e93d
000003b0: 2ea4 ff3d a474 d2bc a4d7 e13d bbb8 2a3d
000003c0: 19dd 01bd 0670 073e 87fd b8bd 42e5 9f3d
000003d0: c57a 55be 141e f93d 0ece 9b3d a1e8 a9bd
000003e0: f9ec 4f3e ddaf 15bd b371 3d3d ba14 4cbd
000003f0: 690f a63a 7c0a 4abc fa5c 093d ff23 6cbe
0.33625633 -0.093330584 0.10768508 -0.17949253 0.02612968 0.107501574 -0.14234181 0.037876464
-0.14355792 0.06868033 -0.0025153568 -0.05337737 0.15617208 -0.2557937 0.1557156 0.0088693295
-0.17053261 -0.047428407 -0.08134134 0.13043433 -0.065998554 0.21287371 -0.09200341 0.116752625
0.01781542 -0.11175131 -0.06895945 -0.030898677 0.055753764 -0.037861623 0.11857303 0.04855674
0.21228938 -0.062022805 0.021088922 0.007518428 -0.02288482 -0.09876693 0.004914214 0.1404138
0.0012251211 -0.13425665 0.16982794 -0.12652294 0.1309565 0.121208124 0.039588496 0.07616823
-0.058244754 -0.053587437 0.0077977185 0.33076364 -0.2726484 0.12459493 -0.301962 -0.15662971
0.2157731 -0.25235125 0.10505447 -0.21495439 0.2794467 0.11061854 0.23093103 0.18049349
0.029590838 0.02235372 -0.10305286 0.14742509 -0.11394262 -0.0037930615 0.08848406 -0.04608506
0.043629494 0.13456832 -0.009644204 -0.049501702 0.08542151 -0.021690162 0.20887253 -0.118504375
0.115881495 -0.047096718 0.0137856975 0.20454356 0.014984565 0.11475745 -0.00654718 -0.06291736
0.10908648 0.105643086 0.0031210126 -0.027503463 0.043943767 0.088999406 -0.09972357 0.033695273
0.047981944 -0.06003314 0.1584924 0.06842933 0.19878036 -0.142327 0.2516368 0.3305493
0.28296462 -0.07489629 -0.009225776 0.17472583 -0.0044655856 0.068546444 0.011009374 -0.029661663
-0.24169333 0.1346639 -0.006105152 -0.010028121 0.024962448 -0.025254484 -0.1500361 -0.09799164
-0.029097157 -0.0050347955 -0.13662538 0.028795633 0.036345482 -0.08841453 0.17292413 -0.116570316
-0.09532378 -0.033316944 -0.07468663 0.09197909 0.18735422 -0.15127319 0.11325945 -0.24297868
0.07038919 -0.0016986898 -0.21156876 -0.051785696 0.16246271 -0.32019806 0.082533345 -0.11409553
-0.037010606 0.14199339 -0.121560805 -0.053793196 0.08865705 -0.04324922 0.050170075 0.040876545
0.058628272 0.11363232 -0.02567479 -0.025687087 -0.23418856 0.014438939 0.042014863 -0.0009772644
0.0822443 0.06549476 -0.028032463 0.08146723 -0.027365174 0.010730097 -0.14840898 0.03787037
-0.08501686 0.028568137 0.007935688 -0.07847679 -0.09982546 -0.13226141 -0.1517846 0.20929764
0.042848065 0.010971704 0.0060818614 0.08141086 -0.021169338 -0.14603901 -0.12912467 -0.016871002
-0.0997968 0.008214152 -0.013993212 -0.05829922 -0.09449529 -0.11849775 0.015241922 -0.07134027
-0.03289229 0.033567764 -0.036506794 0.040009838 0.11285935 -0.037961226 0.12821127 0.069621205
0.10636723 0.04261105 0.10539754 0.051355343 0.04434893 0.112186305 0.14221069 0.10154255
0.06627134 0.094937034 0.03453214 0.05444342 0.0644373 0.13459998 0.050946902 0.10045104
0.01964234 0.15993117 0.158132 0.084245436 0.0090951985 -0.05120848 -0.014840805 0.029238295
0.05130355 -0.11125781 -0.019032402 -0.010084375 -0.12229603 0.0047676163 -0.14412272 -0.13732608
-0.14267154 -0.029638158 -0.065168 0.11401252 0.12482487 -0.025690384 0.11027458 0.04168008
-0.031704996 0.13226327 -0.090327315 0.07807399 -0.20847614 0.1216394 0.07607661 -0.082963236
0.20305242 -0.03654467 0.04625101 -0.049824454 0.0012669388 -0.012331601 0.033535935 -0.23060606

encoder.e_layer_two.bias f4 [32]
00000000: 44c2 74bd 42b4 f9bd 1bed 023c 0c7a 52bd
00000010: 0e97 0ebd cb28 0abe 752c 483e d859 3ebd
00000020: 5cd7 823d 127f 05be 7ed2 7fbd 2617 d83b
00000030: 5f0b 2b3b 2623 9ebd 0d89 30be 2b6d eb3d
00000040: 37c5 1abd 4d8d 79bd 2d84 47bd cd7f b33d
00000050: dcb8 363c e971 b1bd c772 54bc 7660 a6bd
00000060: d54c 8f3d cfd6 c9bc ec28 e23d 029f b1bd
00000070: 2fe3 54bd 9010 42bd 0604 9bbc 2783 fbbd
-0.05975558 -0.121925846 0.007991101 -0.051385924 -0.034812026 -0.13492124 0.19548209 -0.0464724
0.06388733 -0.13036755 -0.0624566 0.0065945564 0.0026099307 -0.07721548 -0.1723978 0.114954315
-0.037785735 -0.06092577 -0.048710037 0.087646104 0.011152472 -0.08664305 -0.012966818 -0.08123867
0.069970764 -0.024638562 0.110429615 -0.086729065 -0.05197447 -0.047379076 -0.018922817 -0.12280875

encoder.e_layer_three.weight f4 [64, 32, 5]
00000000: e7f3 023e a6c4 e33d c062 813d a4b7 4e3d
00000010: 59a0 ff3c 79ec 7e3d b7df b83d e1d6 fa3d
00000020: 33c2 aa3d 1df2 d33c 299f 2ebd d139 c7bd
00000030: 481c 29be b477 5dbe a5ef 98bd 8d18 9b3d
00000040: 87e6 1c3d da88 9cbc 0844 903d 1223 283c
00000050: 3159 8c3d 646a e03d c181 38bd 9a41 23bd
00000060: 0d8d c13c 3c32 17bc b3a9 983c 16a2 013d
00000070: bbe0 2e3d 66c7 363d 02aa 4abd 9e72 d13d
00000080: 7992 953d 59cc f33d c411 cbbc 3a2e 543d
00000090: 262d cc3d 4d2f d03d 5ce1 cc3d 16f2 c3bc
000000a0: ae37 a8bb 7ba7 8e3d 9829 1a3c 4df0 a0bd
000000b0: 8fe5 923d f01b 69bd 4feb ae3c 9547 5a3d
000000c0: 5642 81bb 2245 9ebc 9b7d acbd c503 99bc
000000d0: 2efb 633d 58cb 573d 7eb3 193b f0e9 993d
000000e0: 51ec ca3d 83d2 db3b f5b3 673d 3e1f 593d
000000f0: efa6 0dbd c07a 233e 882c 593e da27 d83d
00000100: dd7b a03d d4ac 983c 0de3 173e e7e7 eb3c
00000110: 9283 e33d 235e 9e3c 55f3 39bd d746 8bbd
00000120: 3484 9bbc 9b4e efbd d276 c1bd 5fa9 3b3d
00000130: f2ae 943c 589d 46bc a64e 843d 609e c4bc
00000140: dff2 54bd db44 8dbc 5402 3b3d a886 953d
00000150: 0162 aa3d 27ed 003d 4f97 ab3d 93fd 873d
00000160: 2da8 6c3c e527 b13d a19e 503d 6dfc 903d
00000170: 9eaa 773d 822d 93bd b45d 9abd d9ff 213d
00000180: 9cd0 d7bc 014f 143d cdae 8b3d fe01 3fbc
00000190: 7adb 8abc 1808 ee3d a367 78b9 258a b43c
000001a0: 8161 76bc 9d22 01be f99c 19bd d4bb cabd
000001b0: bd40 efbd bfca 27bd 0625 163d 75d8 d4bd
000001c0: 332d 18be f0d4 89bd a976 9dbd eeb9 553d
000001d0: 5b05 b13d 8ca5 f63d fe54 443d 4b04 0fbd
000001e0: 3998 e43c 71f5 fb3d 92e2 883d 4625 cc3d
000001f0: 96d1 663d 935f c3bc cb0c e53b c221 833c
00000200: 2c48 b73d 8daf da3d 09ef 883d 8e3b 0b3d
00000210: 5305 a73c 5c6b a83d c501 153e 9adb f2bc
00000220: 9d51 cabb ecc4 c93a 10a9 44bd 3ca2 22bd
00000230: 9947 5cbc 422f b73c d6e4 d23c 6fb3 55bd
00000240: 740f 7dbd b8ff 3abd 2497 973a 570e 6abd
00000250: dc3c 28be bc22 c7bd b9bd ebbd 33d4 dfbc
00000260: a6a4 9fbd e768 e9bd 615c 53ba e432 e03c
00000270: 62ea 113d d9e2 813d 74e4 a93b 3893 7cbd
00000280: 01c4 24bd 8406 2fbe 0a84 31be 3bb3 86be
00000290: 736a 80be 122a d4bd c05d 35bd 5f6f 5ebd
000002a0: 4f1f 46bd 2faa 173d 556d 9b3d 6566 b93c
000002b0: 454b acbd c74a ccbd 5898 eabd 8d6f d6bc
000002c0: 0f6d bbbb ae96 083d e78b c139 1187 61bc
000002d0: e046 fd3d 3422 0b3e 3eff b63d d5a0 a93d
000002e0: 8975 dabc ecfe 82be 06a5 9dbd 5a2d bb3b
000002f0: 48dd 8e3d 18b9 d73c 27bf b03c f8a3 9cbd
00000300: 17f2 f03d 0247 d0bd e801 fdbd d23e 07be
00000310: 795e 90bd 44e3 1f3d a904 4f3d 9f50 703c
00000320: 9285 8a3c 3489 8a3c 3b79 ef3d 3777 5b3e
00000330: aa14 833e 1113 17be 9bc2 2fbd b350 86bd
00000340: 7cf8 04bd 28e6 b4bd f018 36bd ef2c 57bd
00000350: fa00 8fbd 7221 413d 4c95 c93d 14d9 e43b
00000360: fecb c43d a344 163e ee26 ae3d 83f8 f03c
00000370: da82 85bc 991c ea3d 1439 39bd d324 1fbc
00000380: 580c 8f3d de94 6f3c 9159 c03c 67d4 603d
00000390: 4d0c 063d b490 70bd 984f e4bb 39fd 9fbd
000003a0: df2e 70bc 0ff3 4e3c 20be 083d 1184 82bc
000003b0: 4e5d 28bd 983d e93c c645 323e 3733 253e
000003c0: 1826 9ebc edd2 373d 8b5e e83d 45b6 363b
000003d0: 08d0 033e 3108 d53b 3983 dfba 3cd3 51bc
000003e0: 2932 2e3d a7d8 8d3d d945 ffbd b294 2abe
000003f0: d041 f6bd 34d0 c7bd c410 e5bd 36d0 a93d
0.12788354 0.11121492 0.06317663 0.050468102 0.03120439 0.062237237 0.09027045 0.12248016
0.08337822 0.025872285 -0.042632256 -0.097278245 -0.16514695 -0.21627694 -0.074675836 0.07573042
0.038305786 -0.019108225 0.07044226 0.010262268 0.068529494 0.109577924 -0.045045618 -0.039857484
0.023626829 -0.009228285 0.018635606 0.031648718 0.04269479 0.044623755 -0.04947854 0.102269396
0.07303328 0.119042106 -0.024788745 0.051801898 0.09969549 0.10165272 0.100039214 -0.023919147
-0.0051335907 0.06965538 0.009409331 -0.07858334 0.07172691 -0.05691141 0.021352438 0.053290922
-0.0039446754 -0.019320074 -0.08422395 -0.018678555 0.055659465 0.052684158 0.0023452933 0.07515323
0.09908355 0.0067084446 0.056568105 0.05300831 -0.03458303 0.15964794 0.21208394 0.10554476
0.07836125 0.018637098 0.14832707 0.028797103 0.111090794 0.019331997 -0.045398075 -0.06800621
-0.018983938 -0.11684915 -0.09446491 0.04581582 0.018149827 -0.012122475 0.064603135 -0.0240013
-0.051989432 -0.017244747 0.045656517 0.07301074 0.08319474 0.031476166 0.08378469 0.06640162
0.014444393 0.086501874 0.05093253 0.070793964 0.060465448 -0.07186414 -0.07537404 0.039550636
-0.02634459 0.036208156 0.0682045 -0.01165819 -0.016950358 0.116226375 -0.00023689731 0.022038529
-0.015037895 -0.1261086 -0.037503216 -0.098991066 -0.1168227 -0.040964838 0.036656402 -0.103928484
-0.14860992 -0.06730068 -0.07688648 0.05217927 0.086435996 0.12043294 0.047932617 -0.034916203
0.027904617 0.123026736 0.0668384 0.09968047 0.05635222 -0.023849284 0.0069900504 0.016007308
0.089493126 0.10678015 0.06686217 0.033992343 0.020388281 0.08223602 0.14551456 -0.02964573
-0.00617428 0.001539377 -0.048012793 -0.0397055 -0.013444805 0.022361401 0.025743883 -0.052173074
-0.061782315 -0.04565403 0.0011565429 -0.05714258 -0.16429466 -0.09723422 -0.11510796 -0.027322864
-0.07795076 -0.11396962 -0.0008062777 0.027368017 0.035623915 0.06342096 0.0051847044 -0.061663836
-0.040225986 -0.1709233 -0.17335525 -0.26308617 -0.25081214 -0.10359587 -0.04427886 -0.05430543
-0.048369702 0.037027534 0.07589213 0.022631833 -0.08412794 -0.099752 -0.114548385 -0.026176238
-0.005719788 0.033346824 0.00036916064 -0.0137651125 0.12367034 0.13587266 0.08935402 0.082826294
-0.026667373 -0.25585115 -0.07697491 0.0057121934 0.069758 0.026333377 0.021575524 -0.07648462
0.11764925 -0.10169794 -0.12353879 -0.13207558 -0.07049269 0.039035097 0.050541554 0.014667659
0.016909394 0.016911127 0.11693045 0.21432196 0.25601703 -0.14753367 -0.0429102 -0.06558361
-0.032463536 -0.08832961 -0.044457376 -0.052533086 -0.06982608 0.047151037 0.09842929 0.0069838855
0.09609221 0.1467462 0.08503519 0.029415375 -0.016297746 0.11431236 -0.04522045 -0.009713369
0.06984776 0.014622895 0.023480209 0.054890063 0.032726575 -0.05873175 -0.006967496 -0.0781197
-0.014659612 0.012631192 0.033384442 -0.015932115 -0.041104607 0.028471753 0.17409429 0.16132818
-0.019305274 0.04487889 0.11346158 0.0027879637 0.12872326 0.0065012206 -0.0017052657 -0.01280671
0.042528305 0.06926089 -0.12464494 -0.16658285 -0.120242715 -0.097565085 -0.111848384 0.08291666

encoder.e_layer_three.bias f4 [64]
00000000: e2f2 26bd cfa1 d03c a74c ca3b 61f9 013d
00000010: 1386 7d3d 2274 483d 50db 413d ba44 88bc
00000020: 3116 d9bd c310 07bd 0158 64bb db99 483d
00000030: c533 853d 1101 2e3c fada f83c 807b 54bc
00000040: 228a ab3d bc09 813d 34dd a8bb c36e 613d
00000050: 8ee1 0cbe 1dbc b43d ffcf 05bd ec93 80bc
00000060: 449d 043b 9f86 843d ba46 673d dfce 193e
00000070: fcac 33bb e773 a6bc 795e 193b de35 113d
00000080: 7c46 083d 90b5 bdbd f36c c63d 0790 cabc
00000090: 8761 d83d d72b af3c f019 1b3d b4a9 0abd
000000a0: edf3 54bd 1e0c 19bd 4b89 6abd 3f10 383a
000000b0: 23d6 45bd 445c bc3c bf7b 2e3b b66e aebc
000000c0: 9c3c e83d a2e2 c3bc 577f afbd 9ee1 3ebd
000000d0: ad2f b9bd e02f 923d 8cf6 3b3d aeea 8abc
000000e0: 54d9 073e 551e ac3d dd6f aebd f4d0 fc3c
000000f0: 569d c9bd 6305 5abd 0ce2 e5ba dfb3 bb3d
-0.040758975 0.025467781 0.0061736885 0.031731967 0.06189544 0.048938878 0.047328293 -0.016634334
-0.10599936 -0.03297497 -0.0034842493 0.048974853 0.06504015 0.010620371 0.030377854 -0.012968898
0.08375956 0.06300685 -0.0051533226 0.05503727 -0.13757917 0.08824942 -0.032669064 -0.015695535
0.002023534 0.064709894 0.056463934 0.15020321 -0.002741634 -0.020318938 0.0023402257 0.035451762
0.033270344 -0.09263146 0.09688749 -0.02472688 0.10565477 0.02138321 0.037866533 -0.033853248
-0.05199044 -0.03736507 -0.05725984 0.0007021464 -0.04829992 0.022993214 0.0026624051 -0.021293025
0.11339685 -0.023911778 -0.0856921 -0.046601884 -0.090422966 0.07138038 0.045889422 -0.016957607
0.13266498 0.08404223 -0.0851743 0.030861355 -0.098444626 -0.053227793 -0.0017538681 0.09165167

encoder.e_layer_four.weight f4 [64, 64, 5]
00000000: d142 1bbd 940f e2bc b05e e0bc 11e5 20bd
00000010: a07c 15bd 3c10 f7bd b216 98bd 684c 19be
00000020: c83f 09bd 83b6 fdbd d48b fc3d 0978 763c
00000030: c145 a63a 61ec 513d b567 d93d e94d 9dbd
00000040: 2791 febd 89ad f7bd 979b 92bd 7dce f4bd
00000050: 55ef f33c b11c e93c 171d d73d 3916 d53d
00000060: 4288 5e3c 8294 c0bd f130 adbd 5db9 c9bd
00000070: ba5c 85bd 1328 abbc eea8 e0bd 6449 a2bd
00000080: c7b9 10bd dbdf 8fbd 3212 aabd 0f68 e03d
00000090: 8f69 b73c 5f76 f93d dba7 343d 33b5 8bbc
000000a0: 419d d33c a298 443d 571c e03c 5534 cc3c
000000b0: 9a5b 273d 932a 033c c343 cb3d 4460 023d
000000c0: 9425 cd3d 6544 043d 3821 92bc 0c29 50bc
000000d0: c4de a7bd 8018 96bd 9f8f 5dbd 176f a13b
000000e0: becf a83c b34f 773c 8489 8e37 2459 e93b
000000f0: e0ab ffbd d267 afbd fd90 acbd 936a 60bd
00000100: 0f7c 2dbd c6e3 043d ebb4 983c a8f5 b13d
00000110: f101 213d c2be 123d adf8 f43c 018d 6a3d
00000120: 66d9 513d eea6 933d ffc4 323d f392 e0bc
00000130: 7954 a7bd f5d7 27bd 67eb 6f3b d69f c2bd
00000140: 93be 60bd acdc 35bd e557 eabd 85fe 9cbd
00000150: f1c3 70bd 5f6b 053e 6c37 e53d 7b49 7b3d
00000160: 1ad2 203d 0014 ab3d 2222 0bbd bbee 2f3c
00000170: 63ea 8cbd dbe0 613c c247 b9bd c1c2 ddbd
00000180: 0934 f0bd a8d3 07be 94e3 abbd 777a 9dbd
00000190: 5ab3 013d 3c29 4e3d 25cf 273d a2e6 813d
000001a0: e524 e43d 61bd 9fbd ee50 2cbd 3484 23bd
000001b0: ea13 45bd 8446 c2bd a2ff 11bd c398 bbbc
000001c0: 3546 c0bd 5119 41bd d358 b8bd 98ab bb3d
000001d0: 66c9 163e cbe3 363d 5226 3f3c 7143 e73d
000001e0: fec0 c83c d608 67bb 02b4 a13d 4814 933d
000001f0: 80d6 c13d e162 ee3c e581 d03d 1641 883d
00000200: 23c6 8b3d e0c1 b23c 3453 40bd c969 59bd
00000210: 1ef9 b8bd 0169 e0bc 37eb c9bd 5426 2fbd
00000220: e538 70bc 7a8f ccbd 703e a0bd b1db ccbd
00000230: 9383 89bd e290 32bd 0a3f bfbd b9d6 3cbd
00000240: 7d2d 0ebd 304a a73d 5b53 1b3d 40e0 d03d
00000250: feb1 013d 5176 e13d ed3d 403d fd5b 8a3c
00000260: 069d a73d ffcb bc3d 6543 c23d 2574 d4bd
00000270: a452 40bd ec2c 49bd 52fd fdbc c465 18bd
00000280: d6eb d3bd 96ae bdbd 70f4 e0bd 80da b7bd
00000290: dbec afbd 0718 703d 7266 333d 336c e73d
000002a0: e428 9c3d 604f b43d e255 aabd 90d7 b9bd
000002b0: ff84 dfbd 605e 2fbd 5952 9dbd bde6 b1bd
000002c0: e24e b3bd 7a7c a6bd 98c0 d43a 97d4 40bd
000002d0: 49a3 90bc 5faa 09be e520 d9bd e6fa afbd
000002e0: 311a 07be 060c 5f3c 8c66 8b3d 1733 d43d
000002f0: 4368 083d af49 603c f536 9ebd 17ee 1abd
00000300: d70c 6fbd 277b 9cbd d217 bcbd 9a44 b53d
00000310: 93cb 6d3d 280d c83d 9573 603d a0a2 703d
00000320: 8ea4 973d 2b24 ea3d 5416 073e 58b9 503d
00000330: abda 2e3d f36f 89bd 03c5 54bd 3e2b 46bd
00000340: ab86 e6bd 0e83 e2bd aa65 83bc 9aea 8bbd
00000350: 746b 16bd cfe2 143c 40c7 b6bd 775f ffbd
00000360: 529f 80bd 704c ecbd 01f2 82bd 0ffb 9ebd
00000370: cfaf a4bd 3677 85bd 7bef 7bbd b77b e5bc
00000380: 42ac fbbc e0f2 f1bb 82f9 703d 110f 053d
00000390: 8780 30bb a179 263c 8087 ca3c 0b27 013d
000003a0: fe62 933d 3e7d e53d a62e bf3c 58ac 1b3d
000003b0: f4ec b03d 777f 9c3d 10c6 793d e380 573d
000003c0: 1c80 dfbd 47be 17be ac8c e2bd 71c1 6ebd
000003d0: 7c59 43bd 89fd be3c 3521 293d 783c 0e3c
000003e0: 5a15 e13d 9f7d a23c 4541 623d e6a3 b73d
000003f0: 85d7 923d aefa b63d 8090 b43d 1bfa b23c
-0.037905518 -0.027595319 -0.0273889 -0.039280955 -0.036495805 -0.12063643 -0.07426204 -0.14970553
-0.033508092 -0.12388327 0.123313576 0.015043267 0.0012685583 0.05125082 0.10615484 -0.07680876
-0.12430029 -0.12093646 -0.07158583 -0.11953447 0.029777208 0.028456064 0.10503595 0.10404629
0.013582291 -0.094033256 -0.084566005 -0.09849808 -0.06511827 -0.020893132 -0.10969721 -0.079241544
-0.03533342 -0.07025119 -0.08304252 0.109573476 0.022389201 0.121807806 0.044105392 -0.017054176
0.02583182 0.047997124 0.027357263 0.024927298 0.040858842 0.008005756 0.09925034 0.031830087
0.10016933 0.03229179 -0.017838106 -0.012705099 -0.08196786 -0.07328892 -0.054092046 0.004926573
0.020606872 0.015094685 1.6991755e-05 0.007121222 -0.124839544 -0.08564724 -0.08426092 -0.054789137
-0.04235464 0.032443784 0.018640956 0.08689433 0.039308492 0.035826452 0.029903734 0.057263378
0.051232718 0.07209574 0.0436449 -0.02741382 -0.08170409 -0.040977437 0.0036608817 -0.095031425
-0.054869246 -0.044399902 -0.11442546 -0.07665733 -0.058780614 0.1302924 0.111922115 0.061349373
0.03926287 0.08353424 -0.0339681 0.01073807 -0.06880643 0.01378652 -0.0904689 -0.10828162
-0.11728675 -0.13264334 -0.083930165 -0.07689374 0.031665184 0.050332293 0.040969033 0.06342818
0.111398496 -0.07799793 -0.042069368 -0.039921 -0.048114695 -0.09486106 -0.03564418 -0.02289999
-0.09388391 -0.047143284 -0.09001317 0.09163588 0.14725265 0.044650834 0.011666851 0.1129216
0.024506088 -0.003525307 0.07895662 0.07181603 0.09464741 0.029099884 0.101810254 0.06653039
0.06824901 0.021820962 -0.04695435 -0.0530794 -0.0903189 -0.02739382 -0.09859317 -0.042761162
-0.014662002 -0.099883035 -0.07824409 -0.1000284 -0.06714549 -0.043595202 -0.093381956 -0.046103213
-0.03471135 0.08168447 0.03792129 0.10199022 0.031663887 0.11008895 0.046934057 0.016889567
0.08184247 0.09218597 0.09485511 -0.10373715 -0.046953812 -0.049115106 -0.031004582 -0.037206426
-0.103477165 -0.09261815 -0.10984123 -0.089772224 -0.085900985 0.058616664 0.04379887 0.11299934
0.07624987 0.08804202 -0.08317162 -0.090743184 -0.10914039 -0.042814612 -0.07681722 -0.08686588
-0.0875528 -0.08129211 0.0016231714 -0.04707774 -0.017655985 -0.13443898 -0.10601977 -0.08592777
-0.13193585 0.013613706 0.06806669 0.10361307 0.033302557 0.013689443 -0.07725326 -0.037824716
-0.058361854 -0.07640677 -0.09184231 0.08850975 0.05805547 0.09768134 0.054797728 0.05874884
0.07404433 0.1143268 0.13192111 0.050958008 0.042689007 -0.06710806 -0.051945698 -0.048381083
-0.112561546 -0.11060153 -0.016039688 -0.06831856 -0.03672357 0.0090872785 -0.08924723 -0.1246938
-0.06280388 -0.11538017 -0.06393815 -0.077627294 -0.08041345 -0.06516878 -0.061507683 -0.028013093
-0.030721787 -0.0073836893 0.0588317 0.03248507 -0.0026932077 0.0101608345 0.024722815 0.031531375
0.07196616 0.11205529 0.023337673 0.038006157 0.08638945 0.076414995 0.060979903 0.05261315
-0.10913107 -0.14818679 -0.11061987 -0.05828995 -0.04769276 0.023314254 0.041291434 0.008681409
0.109904006 0.019835291 0.055238027 0.08966808 0.07170013 0.08934532 0.08816624 0.021847775

encoder.e_layer_four.bias f4 [64]
00000000: 37e6 80bd 42f0 efbd e8d3 85bd 12e3 88bd
00000010: 343f fe3d 122e 823c cc59 90bc 594f 27bd
00000020: d433 e03b 2d1b 033e 325e f9bb c6dc 88bd
00000030: 5ded 113d 5724 883d 16bb 0ebc 6a6e c1bd
00000040: be71 d23a ff5e 2fbc 29be be3c 075c 3fbd
00000050: 1578 073d 5ed7 82bd c18f 12bd 78d4 bcbb
00000060: 5854 ecbd 20b8 05be f3c8 bf3c 97fb 383c
00000070: db03 123d c8d6 b33c aba0 573c 2ed4 69bd
00000080: fd8c 7ebd a4cf f1bc db10 3fbd 55cd d6bc
00000090: 7d53 19bc d8b7 8d3c 0ac2 e73c 11eb 0abe
000000a0: e056 d4bd 4d23 193d 3877 0abe 1392 d7bd
000000b0: 0f48 6e3b b636 c1bc 4896 8abd 1dc4 59bd
000000c0: 73b2 35bc 1014 873d d956 adbd ae5b 9ebd
000000d0: 1eeb 823b 13e5 80bd d6e7 8b3d 2b9f adbc
000000e0: 554e 61bd 3e9f 70bd 599f a0bd 4d1b d73b
000000f0: 136c b1bd 503f 1e3c 6bc8 e43c 41af 9b3d
-0.0629391 -0.117157474 -0.065345585 -0.06683935 0.12414399 0.015891109 -0.017620943 -0.040847156
0.006842116 0.12803335 -0.007610106 -0.06682734 0.035626758 0.06647556 -0.008711597 -0.09444888
0.0016055626 -0.010703801 0.023284035 -0.046718623 0.033073504 -0.06388734 -0.035781626 -0.005762633
-0.11539525 -0.1305852 0.02341125 0.011290452 0.035648208 0.021953002 0.013160865 -0.057087116
-0.062146176 -0.029517956 -0.046646934 -0.026220957 -0.009358284 0.017299578 0.028290767 -0.13566233
-0.103681326 0.03738718 -0.13522041 -0.10525908 0.0036358868 -0.023585659 -0.06766945 -0.053165544
-0.011089909 0.065956235 -0.084638305 -0.0773233 0.0039953133 -0.062936924 0.068313286 -0.021194061
-0.055006344 -0.058745615 -0.07842893 0.006564534 -0.08663192 0.00965865 0.027927598 0.076017864

encoder.residual_stack.layers.0.conv_one.weight f4 [64, 64, 3]
00000000: f4a8 083c b2ea 5f3d 9bde 1cbd 4a59 273d
00000010: 6ee1 89bd 42e8 ecbd e1eb 933d 2ee8 b53b
00000020: 4e01 bbbd cbd1 3d3d 1102 f0bb 5707 b1bc
00000030: 880b 9bbd fa87 88bc 2442 d53c 2db0 ca3c
00000040: 3808 523d bdb8 78bd 1ad8 283d 7539 40bc
00000050: ecb8 33bd ea3f 3a3d d9b0 8cbd 1185 87bd
00000060: 57eb e7bd 2fb0 0bbd 0a49 c5bd c4ba 38bd
00000070: e3ec 403d 39ce 0f3c e571 a93c ba51 c43d
00000080: 0001 99bd b359 37bd 256b f13b 8762 34bc
00000090: 3fd4 50bd 75dd afbd eb93 a3bd 0f7e 47bd
000000a0: c095 bbbd 99ce 4abd cb4b 9d3d ba0f 943c
000000b0: ec47 31bd b90f ca3d 8805 40bd 5027 2d3c
000000c0: 4c0e 113e 22d1 523d 7759 a73c e41f a33c
000000d0: 10ee c2ba 98b2 e0bc 7859 91bb c207 4f3d
000000e0: 692e 7fbd b6bc 1d3d f3ce 77bd d98b 423d
000000f0: 01c1 193c 002d bebd 04be 5cbd 4da3 113d
00000100: 96b0 9a3c 251d c4bc e58d cd3d 427a 933d
00000110: 45c3 81bd b1f0 803d 2eb2 a0bc b42a 51bd
00000120: 7d5b 193c ead9 343d 096d 83bd 25f2 76bb
00000130: b52a c8bd 7bfc 3abc 1d0d f7bc 569d a33c
00000140: 12cd d2bd 2a39 2bbd 7632 0a3d b5f1 6ebd
00000150: 4975 6bbd 427b 87bc 3b35 8bbc 610b 9fbd
00000160: 0396 feb9 b3d0 ba3c 2a5b 0dbc 97fe 1abd
00000170: 7163 923c d1bb 1ebc 6082 863c 1702 87bd
00000180: 4f82 a83b 5c9f c8bd 2ec7 5b3b e799 b5bd
00000190: 2f92 90bd 5467 ab3c 1362 6b3d 24bb b9bc
000001a0: d7d0 63bd 76ad 233d cfd0 6dbd 5ba7 a3bd
000001b0: abd2 943b d9e8 03be 33b5 9cbd be9f 593d
000001c0: 647e 083d f15a 58bc 4f9d 103d 7a60 23bd
000001d0: 4e4c 023d acf2 50bd 80f6 4fbd 0f97 d4bc
000001e0: 67fd 03be 2dcd c2bd 283d 9a3c 0286 e9bc
000001f0: 69b8 8ebd fcad eebd 4fd7 51bc 72cc 47bd
00000200: 4702 86bc d043 913c 5ddc edbc 2b80 23bd
00000210: b1a7 a9bc ba16 2abc 96ae b5bc b451 c0bb
00000220: 56e7 e7bc 6ac5 f53c 2b9d 363d 0d7b e2bc
00000230: 67d8 e0bd 9869 8dba cba0 dfbd 7b34 da3c
00000240: bdc3 d73d 99b2 7ebc 1a76 c23c 437f 77bd
00000250: a67e 483d a07f c9ba 9ba2 76b7 a1b8 9d3c
00000260: 9cb7 63bd c3c5 e83c 2aef 4abd 24a7 37bc
00000270: 5426 ac3d 3b36 723d 2dc3 30bb 4713 34bd
00000280: 18f1 91ba 73b8 dbbc 6a07 39bd ee44 953d
00000290: 539b 9d3c 432c 8cbc ab04 4f3c 0af1 803d
000002a0: b4a4 093e c7df 06bc cad7 963c f96f 92bd
000002b0: 2232 583d 17ee 123c 6e39 273c f192 343d
000002c0: 3c9d a0bd 6300 28bd b68d 8dbc 326e 4f3c
000002d0: fc0d 323d 62e5 96bd 90e9 243d 93ae ad3d
000002e0: e75c 933d 8728 c6bc 15a9 d93d 2731 b73d
000002f0: fca5 87bd 81cb 9bbd e086 63bd 350b a03a
00000300: ec6c 7fbc 1b7a 61bd 44d9 24bd 2924 9fbd
00000310: c69d e3b9 f2eb 9cbd 3f2e 383d 0391 4ebd
00000320: f1ae 84bc 8cc0 103c d8aa 5d3d d96c 803d
00000330: 7dd4 5cbc b026 30be e80e 33bd 7998 d1bd
00000340: 4362 593a 849f 31bd 0962 483d 0d1e b13c
00000350: f9a8 833d f11a a43b 98ca 2a3e 1c34 363d
00000360: 7d72 7bbd cde6 5d3c db49 1b3d 34f6 553c
00000370: 4838 19be 2986 c63c 0fa8 2fbc da32 2a3e
00000380: 7350 73bd 77f4 2a3d 21b2 ae3d adda 213e
00000390: 2a96 b53c d214 b63e 4333 adbd 9354 fdbd
000003a0: 5f8e 563e d270 8ebd e0ca 7b3d a0a7 01bd
000003b0: db84 853d d527 91bd 7de1 f6bc 9574 8d3c
000003c0: a924 a53d e2b6 4cbd d8c6 163d 7fd6 1e3d
000003d0: e61b 743d b6ab a03c e8e2 3fbd 42a6 923c
000003e0: b891 0e3d 245e 653d 601c 0e3b e389 82bd
000003f0: fcba 6abd 2db5 b7be 3808 0fbd 2a66 fabc
0.008341063 0.054667182 -0.03829823 0.040856637 -0.067324504 -0.11567737 0.07222725 0.0055513596
-0.09131108 0.046342652 -0.007324465 -0.021609945 -0.07570559 -0.016666401 0.026032515 0.02474221
0.05127737 -0.060723055 0.041221716 -0.011732449 -0.043877527 0.04547111 -0.068696685 -0.06617177
-0.113241844 -0.03410357 -0.09633072 -0.04509999 0.047100913 0.008777195 0.020684192 0.095859006
-0.07470894 -0.04476328 0.007367509 -0.011009819 -0.050983664 -0.085871615 -0.079871975 -0.048704203
-0.09159422 -0.049513433 0.07680472 0.018073905 -0.04328148 0.0986628 -0.046880275 0.010568455
0.1416561 0.051468976 0.020428402 0.019912668 -0.0014871974 -0.02742891 -0.0044357143 0.050544508
-0.06230012 0.038510047 -0.060500097 0.04749665 0.009384395 -0.09285927 -0.05389215 0.035556126
0.01888303 -0.023939678 0.1003683 0.07201053 -0.06336073 0.06295908 -0.019616213 -0.051066115
0.009360191 0.04415313 -0.06417281 -0.003768095 -0.09773771 -0.011412735 -0.03015762 0.019972485
-0.1029302 -0.041802563 0.03373953 -0.05833598 -0.0574849 -0.016538266 -0.016993156 -0.07765842
-0.00048558423 0.022804594 -0.008627692 -0.037840452 0.017869683 -0.009688334 0.01641959 -0.065921955
0.005142487 -0.097960204 0.0033535468 -0.08867245 -0.07059132 0.020923294 0.057466578 -0.022672243
-0.055619087 0.039960347 -0.058060464 -0.07990905 0.004541715 -0.12881793 -0.076517485 0.053130858
0.03332366 -0.013205276 0.03530627 -0.03988693 0.03181105 -0.05101268 -0.05077219 -0.025950937
-0.12889634 -0.095117904 0.01882799 -0.028506283 -0.06968767 -0.11654279 -0.012807681 -0.04877896
-0.016358508 0.01773253 -0.029035741 -0.039917152 -0.020709844 -0.010381395 -0.022177976 -0.005869115
-0.028308552 0.03000136 0.04458348 -0.027646566 -0.109787755 -0.0010788916 -0.10919341 0.026636353
0.10535381 -0.015545511 0.023737956 -0.0604241 0.048948906 -0.0015373118 -1.4700602e-05 0.019253077
-0.055595025 0.028414613 -0.04954449 -0.011209283 0.08405748 0.05913375 -0.0026971803 -0.043963697
-0.0011134474 -0.02682135 -0.045173086 0.07288538 0.019239103 -0.01711095 0.01263539 0.062959746
0.13441736 -0.008232064 0.018413443 -0.07150263 0.052782185 0.008967898 0.010206563 0.044085447
-0.0784249 -0.041015994 -0.017279487 0.01266055 0.043470368 -0.0736797 0.040261805 0.08480563
0.07195454 -0.024189247 0.10627953 0.08944922 -0.06623456 -0.07607175 -0.05554855 0.0012210371
-0.015589934 -0.05504809 -0.040246263 -0.07770569 -0.00043414364 -0.076621905 0.04496598 -0.050431263
-0.0161967 0.008834969 0.054118007 0.06270761 -0.0134783955 -0.17202258 -0.043715388 -0.1023416
0.0008292535 -0.043365017 0.04892162 0.021620775 0.06428713 0.0050080945 0.16678846 0.04448329
-0.06138848 0.013543797 0.03791223 0.013059188 -0.14962876 0.024233894 -0.010721221 0.16620961
-0.059402894 0.041737046 0.08530069 0.15806074 0.02216633 0.3556276 -0.08457043 -0.12369647
0.20952748 -0.069551125 0.061472774 -0.031654 0.06519481 -0.070876755 -0.030136818 0.017267505
0.08063633 -0.0499791 0.036810726 0.03877878 0.05959692 0.019613128 -0.046847254 0.017901544
0.034806937 0.055997983 0.0021684393 -0.06373956 -0.05730723 -0.35880414 -0.034919947 -0.030566294

encoder.residual_stack.layers.0.conv_one.bias f4 [64]
00000000: 0778 b5bd ade2 ccbd 8ef0 10ba 1395 abbd
00000010: 08ac b2bc 3679 823c c09a e1bd f5be f53c
00000020: 8142 49bd bb71 c5bc d39c 38be 5206 97bd
00000030: 7978 16be e474 723c f1ab 3a3b 7b40 153d
00000040: 60d9 3bbd fc61 13be 108d 33bd fc88 12be
00000050: f799 7dbd ef38 a1bd 69b1 63be 927e 95bd
00000060: f4c0 133e 2e66 023d adde 3f3d dd0e 50bd
00000070: 8378 8e3c 8eda c2bd b53b 5abc 2839 3ebe
00000080: 287d cdbb da6e 233d f976 81bd 4dd4 423d
00000090: e595 853d 56e9 d03c 73f6 30bd 4f2e 07bd
000000a0: e879 7bb9 62a4 843c 72bc a83d f1fe 57bb
000000b0: f5ec 253b 11ba 0fbc fd70 1d3c 4f6f b0bc
000000c0: b589 6c3c 2c97 9fbd cdae e2bd 702f 06bd
000000d0: d878 ca3c 32f6 5fbd 154c 83bd d56c 81bd
000000e0: 648c 1cbe 2e63 6f3d fa21 b33d 2095 0bbd
000000f0: b07f 403b 9f59 d13c 1f3c 60bc e40d 7cbe
-0.08860784 -0.100041725 -0.00055290095 -0.08378043 -0.021810547 0.015926939 -0.11015844 0.029998282
-0.04913569 -0.024102082 -0.18028574 -0.073742524 -0.14694394 0.014798377 0.0028483833 0.036438446
-0.0458616 -0.14392847 -0.0438357 -0.14310068 -0.06191441 -0.07872187 -0.22235645 -0.07299532
0.14429075 0.031835727 0.04684322 -0.050795425 0.017391449 -0.09514342 -0.013319899 -0.18576491
-0.0062710233 0.03990064 -0.0632152 0.047565747 0.06522731 0.025501888 -0.043203782 -0.033003148
-0.00023982639 0.016191665 0.08239068 -0.0032958353 0.002531824 -0.008772389 0.009609458 -0.021537451
0.014437129 -0.077925056 -0.11068497 -0.032760084 0.024715826 -0.05467815 -0.06410996 -0.06319586
-0.1528793 0.058444194 0.08746715 -0.034077764 0.0029372983 0.02555543 -0.013686209 -0.24614674

encoder.residual_stack.layers.0.conv_two.weight f4 [64, 64, 1]
00000000: f787 32bd 20bf 17be ce62 f2bd 379c 7e3d
00000010: 4ba2 1bbe c474 cfbd dca6 75bd cf2f 803d
00000020: 05b0 6dbc 5b57 bcbc d3b6 0ebe e195 e23d
00000030: 4cbe 053d b511 c03c 6d38 efbd 49be 21be
00000040: 3f8b 15bc dbc8 b53c 125d 87bd 54a0 d13d
00000050: 009a c5bd 852b dcbc 4a2e a03d 2efb 0ebd
00000060: e31d dabb 5968 1fbe 24d4 833d fbeb e33c
00000070: 07a8 c4bd dd33 74bc 8bd4 45bd 308c ecbc
00000080: a967 3a3d 6ac8 19be e6f3 adbd e0dc 273c
00000090: 1173 5a3a 6abe a03b 7eac a93c 48e0 cb3c
000000a0: e58b 0abe 087f debb cbab 8cbd 6840 49bd
000000b0: 1d91 a2bd e7a2 4bbd 9c21 8fbd 604d e53d
000000c0: 799e 4fbc 10c3 00bc 24b8 36bd d3ce 0ebe
000000d0: 8a40 c4bd db24 45bd 2207 03be 6572 01bd
000000e0: 7831 62bd ee8b 1dbd 2c43 cabd 6437 043d
000000f0: 1d1b 9e3b 7944 04be a668 ae3c ee5f 4abd
00000100: a83c bbbd bd2c 0bbe d38f 9a3d 02b2 ccbd
00000110: 6dbb ad3d 8a5d df3d 3b23 513d cf11 81bd
00000120: 8c3b bdbd 8f53 0dbd 1d6f cdbd 7aa2 9fbd
00000130: 30fb 27be 19c5 37bc dc1e c63c fd81 7f3b
00000140: 3143 92bc e7f3 16be 5ddf bd3d dc6b 9fbd
00000150: 8cb3 803d 5ea7 e4bc a193 253f 5161 a43d
00000160: 338e 7dbd 6e77 a1bc 9cb1 88bd 8be0 923d
00000170: 984c b0bd 2532 483c 5bec 3abe 429e 18be
00000180: 6940 60bd f85d 8e3d 7385 1e3d a941 00be
00000190: 1a64 fabd ef89 ce3d 08de 843d 4ee8 8bbd
000001a0: ad76 983d ed0b 1ebd 1129 e5bd 6d85 ad3d
000001b0: a182 53bd 67d5 b8bd 9b87 c73c 8733 bfbd
000001c0: 687d 4abd b922 efbd a634 91bd 4dbd 953d
000001d0: a762 14bd 263c 343d 4a7d 01be 2c55 f3bc
000001e0: 58b8 af3d 61a4 b23d 9934 513d 15d4 03bd
000001f0: 042c e439 3036 ba3d eb2d a93d df06 dabc
00000200: 1b6d f13d 0bbb 6f3d 1107 d13d cf22 e03d
00000210: 35d5 323c 82f5 3fbe 0567 35bd 3bf5 dcbd
00000220: 375d 44bd a094 5abd 7659 f0bd c324 e33b
00000230: 472e bb3c 511d 08be 4391 c6bd 39fa 153c
00000240: 0f39 40bd 9822 00be dff5 f6bc 994f 3abc
00000250: 50bd 1d3d 4d51 6bbe 7ee7 9a3d c7c4 0d3d
00000260: 74e1 adbd 0a3d dfbd 3b7e 3fbc c193 69bd
00000270: ce57 aebd bddf 193e 00e3 cd3c 9667 5e3c
00000280: 012a 793d 475a 143d 6734 cabc 8a94 d6bd
00000290: c451 d2bd b15b a13d 7cde 5e3d c911 8e3d
000002a0: 2ca8 4e3d 21f5 dfbd 4dbd 1ebe e94f b2bd
000002b0: 6410 c9bc 39e6 13be c292 963c e71e b6bd
000002c0: 406e 28be 96fa 7bbd 5310 1abd 2e4a 57bc
000002d0: ec34 05be a1cc b83d ec1f cebd dea2 c6bd
000002e0: fe41 0cbd 954b ffba 4acd 87bc 89c1 e43d
000002f0: e71a 613d 2de5 f53d 5ee4 92bc 8dfb 8c3d
00000300: 9314 0abe 8c65 5cbd 2ba8 f0bb 7ac8 b3bd
00000310: 42ca a83b 8b65 493d cd66 803d ac24 debd
00000320: 072c c43b 9399 88bd 2ea9 49bc 719c 963d
00000330: 4d9f 97bd 5c9c c93d 888b 30bb d30e 313c
00000340: c82e b2bd 4e41 6f3d 017e 4abd a337 6bbd
00000350: 0262 83bd e517 013d 6837 bdbc eb75 d7bd
00000360: 6c7e 90bd cf9e c4bd ed32 9f3d fdd4 733d
00000370: bdf5 553c 351f 3a3d ac2b b3bd e958 353e
00000380: 60c6 2abd dafa ee3d f843 64bc a68c f8bd
00000390: a555 b33d 1de3 48bc cd49 ca3d a8b2 6cbd
000003a0: afd1 c5bd 100b 793d 5467 35bd 8968 b73c
000003b0: 6653 2cbd 3724 f23d d0bc 433d 1574 5a3d
000003c0: 6508 1a3d 9d75 97bd 1ee3 043e 4225 633d
000003d0: f051 c8bd 7682 e7bc 3314 203d 7b71 fabd
000003e0: 289c d7bd 4eb1 cb3c 620a 9abd dbe4 8f3d
000003f0: ebfa 9b3c bafb 21bd 9812 93bd fabb c03d
-0.043586697 -0.14819002 -0.11835252 0.062160697 -0.15198629 -0.10129693 -0.059973583 0.06259119
-0.014507298 -0.022990873 -0.1393693 0.110637434 0.032652184 0.023445943 -0.11680684 -0.15795244
-0.009127437 0.022190502 -0.06609549 0.10235658 -0.09648514 -0.02687622 0.07821329 -0.034907512
-0.006656395 -0.15567149 0.06436947 0.027822485 -0.09602361 -0.014904943 -0.0482984 -0.02887544
0.045509014 -0.15017858 -0.084937856 0.010245532 0.0008333186 0.0049055116 0.020712133 0.02488722
-0.13529928 -0.0067900456 -0.068687044 -0.04913369 -0.079378344 -0.049715903 -0.06988832 0.11196399
-0.01267206 -0.0078590065 -0.044609204 -0.13946085 -0.09582622 -0.04813085 -0.1279569 -0.031603236
-0.05522296 -0.038463525 -0.09876093 0.032279387 0.0048250095 -0.12916745 0.021290135 -0.049407892
-0.09142429 -0.13591285 0.075469635 -0.0999489 0.08483014 0.10906513 0.05105899 -0.06302225
-0.09239873 -0.034503516 -0.10030959 -0.07794662 -0.16404414 -0.011216425 0.024184637 0.003898739
-0.017854305 -0.14741479 0.09271119 -0.077842444 0.06284246 -0.027911838 0.6467839 0.08026374
-0.06190319 -0.019710269 -0.06674501 0.071717344 -0.08608359 0.012218987 -0.18254225 -0.1490412
-0.054748926 0.06951517 0.038701486 -0.12525047 -0.12226124 0.100849025 0.064876616 -0.06831418
0.074445106 -0.038585592 -0.111894734 0.084727146 -0.05163825 -0.09025078 0.024356654 -0.09336
-0.049436003 -0.11676545 -0.0709012 0.07311497 -0.036226895 0.044002675 -0.1264545 -0.029703699
0.08580083 0.08722759 0.05107555 -0.03218468 0.00043520343 0.09092367 0.08260711 -0.026614605
0.11788388 0.058527987 0.10206426 0.10944139 0.01091509 -0.18745998 -0.0442877 -0.107889615
-0.04794046 -0.053364396 -0.11735813 0.0069318726 0.022849215 -0.13292433 -0.09695675 0.009153896
-0.046929415 -0.12513196 -0.030146537 -0.011371517 0.03851062 -0.22980233 0.07563685 0.03461149
-0.084902674 -0.10900314 -0.0116878105 -0.057025675 -0.08512841 0.15026756 0.025132656 0.0135745015
0.060831074 0.036218908 -0.02468319 -0.1047755 -0.10269502 0.07878817 0.054411396 0.06936986
0.05045335 -0.109354265 -0.155019 -0.08706648 -0.024543948 -0.14443292 0.018380526 -0.08892613
-0.16448307 -0.061518274 -0.037613224 -0.013140244 -0.1300847 0.09023405 -0.10064682 -0.09699033
-0.034242623 -0.0019477481 -0.016577382 0.111697264 0.054957297 0.120066024 -0.01793116 0.06883917
-0.13484411 -0.05380778 -0.007344266 -0.08778472 0.005151064 0.049169105 0.06269608 -0.10846838
0.005986694 -0.06669917 -0.012308402 0.073540576 -0.07403431 0.09844276 -0.0026938636 0.010806757
-0.08700329 0.05841189 -0.049436573 -0.057426106 -0.06415178 0.03151693 -0.023097709 -0.10520538
-0.07055363 -0.09600603 0.07773385 0.059529293 0.013059077 0.045439918 -0.08748564 0.17709698
-0.04169309 0.1166894 -0.013932221 -0.121362016 0.0875657 -0.012261179 0.09877358 -0.057787567
-0.096591346 0.060801566 -0.044287995 0.022388713 -0.042071722 0.11823314 0.047787488 0.05333336
0.037605662 -0.0739548 0.12977263 0.055455454 -0.09781253 -0.02826045 0.039081763 -0.12228676
-0.10527831 0.024864819 -0.075215116 0.070260726 0.019040545 -0.039546706 -0.07181281 0.09410854

encoder.residual_stack.layers.0.conv_two.bias f4 [64]
00000000: 2088 9dbc 7885 ef3c 508b 73bd 56ef 45bd
00000010: a134 a13b f438 0a3d 7421 133d d9b6 b5bb
00000020: 7087 043e 59e9 e93c 8f19 1d3e b668 813c
00000030: af41 9a3c 4a5d d13d 98de 553d 4679 2bbe
00000040: d190 51bd bef4 39be 66bb 1cbd 91e9 f1bd
00000050: c853 2ebd 3d41 b03c 3546 03be f1b8 8e3d
00000060: db27 f23c 0399 03be 4511 e8bc 8219 543b
00000070: 1b49 9fbd 5832 a0bd 6951 283b eb97 f7bd
00000080: ca04 32be 02fd 38be 5292 023d 7f59 593d
00000090: 3f6f bd3d feed fcbd cf19 8dbc 430b 30be
000000a0: ec34 c4bd 51ec 843d c217 ffbd f4be 423d
000000b0: 490d 893b 2f1f 94bd 412c 2fbe b7af 2e3d
000000c0: 0035 933d c2fb 3dba a781 28bd 5152 3939
000000d0: 51d4 15be 44d5 6dbd 7bb6 1bb9 1919 85bd
000000e0: b098 0cbd 1568 a1bd ea15 38bc 46c4 edbd
000000f0: 5da7 df3c 492c 70bd a17a 37bc 1a8d 1fbd
-0.019229949 0.029238448 -0.05945903 -0.04832395 0.004919604 0.03374572 0.035920575 -0.005545479
0.1294229 0.028553652 0.15341781 0.015797 0.018830149 0.102228716 0.052214235 -0.16745481
-0.0511635 -0.18159768 -0.038264655 -0.118121274 -0.04256037 0.021515483 -0.1281975 0.069688685
0.02956002 -0.12851338 -0.028328547 0.0032363837 -0.07777616 -0.07822102 0.002568329 -0.12089523
-0.1738464 -0.18065265 0.031877823 0.053063866 0.09249734 -0.12350081 -0.01722422 -0.17191796
-0.095804065 0.06490386 -0.12455703 0.04754539 0.004182492 -0.0723251 -0.17106725 0.042648043
0.07187843 -0.00072472927 -0.04113927 0.0001767364 -0.14631774 -0.058064714 -0.00014849931 -0.064989276
-0.0343253 -0.0788118 -0.0112356935 -0.11609702 0.027301485 -0.058635984 -0.011198671 -0.038952924

encoder.residual_stack.layers.1.conv_one.weight f4 [64, 64, 3]
00000000: 1749 99bc 3162 0dbd a4a8 aa3d 4889 1cba
00000010: c9cc b13c 9ce7 7fbc c901 493d a4cd 1cbd
00000020: 6603 aebc 2ce8 12bd 78dc 72bd e42e 71bc
00000030: 950d 5a3d 6360 8b3d d925 6f3d 8981 3abb
00000040: f010 5bbd 6c2d 0abd 27eb 28bd 6568 753d
00000050: d0f0 a83c afd3 833d 49a1 a3bd 5647 483c
00000060: c518 41bd 67bb cfbd 4acf 99bd 8cef d7bd
00000070: ff29 44bd d7b4 34bd 8f07 523d 37ae 773d
00000080: f3dc 6c3d 2401 65bd 617d 793d a57c d93d
00000090: 6ff5 ce3c 6cdf 743c 8d43 9f3d 2ad9 8d3d
000000a0: f89b c5bd 578c 66bd 6f8a b03c ce83 dd3d
000000b0: 915e 2dbc d07a 19bd 93ba 03bd 5b8c 793c
000000c0: 0693 aa3d c9c6 163d 9f7f d33d 8278 04bc
000000d0: a51d 95bc 231f 9d3d 4e1a 993d 468f 9ebb
000000e0: 6308 593d 82a9 933d 2209 bd3d 45ca 983d
000000f0: f4e7 f6bd 5398 053e ae23 9fbd cc71 d0bd
00000100: 4465 a3bd 0646 8ebc 653d 74bb 879c e03d
00000110: 2a73 103d 97c6 c43c 32ab ad3d 21a3 67bd
00000120: be14 a5bd 4d88 b0bc bc29 13bd 3bb7 2b3d
00000130: 946f 85bd 0e13 d2bb 6836 b4bd 131a 0cbe
00000140: 2c65 68bd e754 53bd 8d0b 8ebc baed 1e3d
00000150: a5c7 8dbc a54b 12be 306e 0cbd ff51 583d
00000160: 7ade afbc 1a20 873d fcf9 933c db33 56bd
00000170: 040e 573d 4b8a 0cbd ff41 b1bd ff4a 733c
00000180: cde3 c03c 8495 8cbc 669c 89bc c1ea 3a3d
00000190: 1ac9 0d3d 1bf5 1fbc 524e 203b a1b9 c4bd
000001a0: 08c9 7bbd 78d9 15bc d020 283d 1632 7cbd
000001b0: c175 97bb 4be3 32be c5da 0abd b1d3 22bd
000001c0: 8943 4d3d cafc 1d3d 0dd1 c63c dd0c 9d3b
000001d0: b71d 40bd d439 0abd 032e 703c 4f96 d13d
000001e0: 080f 1b3d 5670 183c 9e2b 513d c442 01bd
000001f0: 05ae 873c a99c f83b 4b37 753d 55f5 7d3e
00000200: 1110 babd c26d 96bd 0389 64ba 188f bbbd
00000210: f77d 563b a45e 3c3e 69cd f4bc c01b 9b3d
00000220: 1d37 e63d 3628 e4bc 99d5 eabc fff8 17bd
00000230: 273b 7ebd bac5 bcbd 1f65 32bd a1fd b4bd
00000240: b755 cebb 9a3f a83d 7b11 473d ba02 b03c
00000250: 3e12 bbbd 10e4 353d f56c 2e3d 05a2 25bd
00000260: 98cb aabd c359 13bd 70d4 6ebc 8dec 653d
00000270: c968 17bd 4651 1b3d 6dd7 3c3d 54e1 e6bd
00000280: a969 edbd 3acd ab3d 8193 d4bc 2125 3dbd
00000290: 5504 6cbd 6c3a a0bd 7409 343d 92e7 9c3d
000002a0: 1dc8 00bc e819 303d 207e e239 05f7 ea3c
000002b0: b989 f63d 0964 9e3d f58c dcbd 9bdd febd
000002c0: fba1 07bd 01eb f13c c0b9 f93c 1934 c7bc
000002d0: 456b 053d 5651 06bb 3f9d 803c a25f 023c
000002e0: 9973 813d 8838 5abd 2794 1d3d dfe3 d53d
000002f0: be16 d1bc 5a80 7e3d c4f4 44be 9c81 543c
00000300: c825 af3b f135 17bd e7f0 03bd f088 03be
00000310: e7a0 0ebd 5207 12be 1b15 b8bd 48bf 11bc
00000320: 558d 7ebd 71d9 203c fd15 c6bc 205e 413d
00000330: c943 64bd 2c64 52bd d373 b3bc 5213 dfbd
00000340: 575e cabd c7cb 11bc 26ce 6c3d acdd dfbc
00000350: b329 d13c ca27 95bd a8a1 6dbd 0080 f13c
00000360: b99a de3b ac8e 95bd cae2 99bd 3d39 93bd
00000370: e58d 05be 6289 c6bd e17d d93c dab1 a0bd
00000380: de00 11bc 6c9f a53b d38c 8abd 09e3 adbc
00000390: 4ca0 0abe d493 98bd ca8c 4ebe f738 e8bc
000003a0: 2c9f 6d3c c9ae 90bd b7d9 9dbd c4a7 79bd
000003b0: d7bf 5b3d 5381 37bd 067b e53c e6de 903d
000003c0: 2948 6b3d e587 d93c 1b3d 91bd a592 673c
000003d0: c86c 983d 2e9f 48bd 2fb4 cfbd 3894 bb3b
000003e0: dd21 093d 5e09 85bd 6047 2a3d aa0a 123d
000003f0: e290 143e da54 383e f538 67bc 17be 0bbd
-0.01871161 -0.03451747 0.08332947 -0.0005971384 0.021704094 -0.015619185 0.049073968 -0.03828205
-0.021241855 -0.035865948 -0.059292287 -0.014720652 0.05323561 0.06805494 0.058385704 -0.0028458557
-0.05348295 -0.033734724 -0.041239884 0.05991401 0.02062264 0.0643686 -0.07989747 0.012224039
-0.047142763 -0.10143166 -0.075102404 -0.10543737 -0.047891613 -0.044117775 0.05127674 0.06046888
0.0578279 -0.05590929 0.060910586 0.10619477 0.025263516 0.014945846 0.07776556 0.069261864
-0.09648889 -0.056286182 0.021550385 0.108161554 -0.010581628 -0.03747064 -0.032160353 0.015231217
0.08328824 0.03681067 0.10327076 -0.008085372 -0.018202612 0.076719545 0.0747572 -0.004838857
0.052986514 0.072100654 0.092302576 0.07460455 -0.1205596 0.13046388 -0.07770477 -0.10177955
-0.07978299 -0.017367374 -0.003726804 0.10967355 0.03526608 0.024020476 0.084799185 -0.056552056
-0.08060597 -0.021549368 -0.035928473 0.04192279 -0.065154225 -0.006410963 -0.0879944 -0.13681822
-0.05673711 -0.05159464 -0.017339492 0.038800932 -0.017307112 -0.14286669 -0.03428477 0.052812573
-0.02146839 0.0659792 0.018063538 -0.052295547 0.0525036 -0.034311574 -0.08655166 0.014849423
0.023546124 -0.017161138 -0.01679821 0.045634035 0.034615614 -0.009763028 0.0024460745 -0.096057184
-0.061471015 -0.009146087 0.041046917 -0.061571203 -0.0046221917 -0.17469518 -0.03390004 -0.039752666
0.050113235 0.038571157 0.024269605 0.004792793 -0.04690334 -0.033746555 0.014659408 0.10233747
0.03785613 0.009304127 0.051066987 -0.031557813 0.016562471 0.0075870347 0.059867185 0.24800618
-0.09085096 -0.073451534 -0.0008717926 -0.09158152 0.003272889 0.18395478 -0.029883103 0.07573652
0.11240981 -0.027851205 -0.028666304 -0.037102696 -0.06206813 -0.09217401 -0.043553468 -0.088374384
-0.006296839 0.08215256 0.048600655 0.021485675 -0.09134339 0.04440695 0.04258438 -0.040437717
-0.08339614 -0.035974275 -0.014577016 0.056133796 -0.036965165 0.037919305 0.046103884 -0.11273447
-0.11592419 0.08388753 -0.025949242 -0.046177987 -0.05762132 -0.07823643 0.043954328 0.07661356
-0.007860211 0.042993456 0.0004320005 0.028682241 0.12037987 0.07733924 -0.10769073 -0.12444612
-0.03311346 0.029531004 0.03048408 -0.024316834 0.032573003 -0.0020495257 0.01569998 0.007957371
0.06320877 -0.05327657 0.038471367 0.104438536 -0.02552354 0.062134124 -0.19233996 0.012970354
0.00534508 -0.036916677 -0.032212164 -0.12845206 -0.034821417 -0.14260605 -0.089884005 -0.008895703
-0.062146503 0.009817467 -0.024180407 0.047208905 -0.055728707 -0.051365063 -0.021905815 -0.10892357
-0.09881275 -0.008898682 0.057813786 -0.027327381 0.025532579 -0.0728298 -0.058015496 0.02947998
0.0067933467 -0.07302603 -0.0751396 -0.07188652 -0.1304241 -0.096941724 0.026549282 -0.078464225
-0.008850304 0.005054405 -0.06765141 -0.021226423 -0.13537711 -0.07450071 -0.20170894 -0.028347475
0.014503282 -0.070645876 -0.077075414 -0.06095101 0.05364975 -0.044801068 0.028012764 0.070737645
0.057441864 0.026554057 -0.07091733 0.014134084 0.074426234 -0.04897993 -0.10141789 0.005724456
0.03347956 -0.06495927 0.041571975 0.0356547 0.14508393 0.18001118 -0.014112701 -0.03411683

encoder.residual_stack.layers.1.conv_one.bias f4 [64]
00000000: 32e7 81bd c862 023d 1849 9fbd 3bd5 133e
00000010: bf16 b6bd dcd1 063e fbc0 a0bc 1227 42bd
00000020: 5478 103d 9f2f b6bd 63db 8dbd 8b91 6abd
00000030: e96f f9bc 0061 73bc cb37 82bc e154 1fbd
00000040: 187c e9bd 0173 0fbe 85ea 3f3d fd3f 673d
00000050: 3d9b b6bd 3491 60bc 185e 0cbe ab7d 1cbc
00000060: 5419 be3d fe53 3a3e cf1d 1cb8 1061 84be
00000070: 5b02 9cbd 7335 f2bd 34c0 c4bc 4bb6 73be
00000080: 2bde 283c 75f5 603d 58ea 6bbd f227 fcbc
00000090: a278 53bd 9d75 9fbc 6db4 81bc 4bfb b6bd
000000a0: a62b 433d b475 fbbd fb2d ddbd 0228 eebd
000000b0: a0d3 18be 39d9 d8bd 786a 40be a890 f3bd
000000c0: e0d6 04be ffd7 833c 6dda eebd c1f5 8c3d
000000d0: 59a5 0e3d 6825 1dbc fd5d 85bd 6c5b b03c
000000e0: b1e2 d4bd e1c0 98bd 5d1b b43d 0874 94bd
000000f0: 83c7 36bd 16c8 80be e583 2dbd c655 ebbd
-0.06342925 0.031832486 -0.077776134 0.1443681 -0.08891057 0.13165992 -0.01962327 -0.04740054
0.035271004 -0.08895802 -0.0692661 -0.057267707 -0.03044887 -0.01485467 -0.015895745 -0.038899306
-0.11400622 -0.14008714 0.046854515 0.05645751 -0.08916328 -0.013706494 -0.13707769 -0.009551446
0.09282175 0.18196103 -3.722106e-05 -0.25855303 -0.07617637 -0.11826601 -0.02401743 -0.23800008
0.010306875 0.054921586 -0.057596534 -0.030780766 -0.051628716 -0.019465262 -0.015833104 -0.08934649
0.04764905 -0.122783095 -0.10799786 -0.11628725 -0.14924479 -0.10588307 -0.18790615 -0.11892825
-0.12972593 0.016094206 -0.11662755 0.06882811 0.034825657 -0.009591438 -0.065120675 0.021527968
-0.103948005 -0.07458664 0.08794282 -0.07248694 -0.044623863 -0.25152653 -0.042362113 -0.11490969
