audio/model/model.pth (torch, 179170 bytes, 69 tensors)

encoder.e_layer_one.weight f4 [2, 1, 5]
00000000: 8895 143e b7aa 5abe 3d3c b43d 8b5f 9dbe
00000010: 8fa9 c5be f549 003f ad92 cb3e a301 38be
00000020: 0e48 5d3d 691f 86be
0.14510167 -0.21354185 0.08800552 -0.30736956 -0.38605925 0.5011285 0.39760342 -0.17969374
0.054023795 -0.2619584

encoder.e_layer_one.bias f4 [2]
00000000: 7ac3 b33e 925b 913d
0.35110074 0.07097544

encoder.e_layer_two.weight f4 [4, 2, 5]
00000000: 0d79 923d 0318 51be 2288 2d3e 3350 ecbd
00000010: 97bc 603e f9eb a33e 211a cb3d ee1a 723e
00000020: 4ca7 b23e 7c69 c03e 2467 97be 08f6 69be
00000030: f0e4 abbd 23f8 003e c3ee 5c3c 6ba3 6bbe
00000040: 87bf 6e3e 383e 06be b905 8abe b76f 053e
00000050: acf5 373e 0256 983e f1cf f43d ef52 bcbe
00000060: b807 cebd b9e2 06bd 3f6f 0bbe 4ca9 ff3c
00000070: 10bf 3f3d 6c14 1a3e 8b3e a93e 8914 ce3e
00000080: dfbd cf3e 9709 0c3e 561f 48be 4eb0 723e
00000090: c5da 923a a7c7 a43d d77c d4bd a00c 5dbe
0.07151995 -0.20419316 0.16946462 -0.11538734 0.21946941 0.3201597 0.09917093 0.23643085
0.34893262 0.37580478 -0.29570878 -0.2284776 -0.08393276 0.12594657 0.01348466 -0.23011558
0.2331525 -0.13109672 -0.2695749 0.13030897 0.1796481 0.2975312 0.11953724 -0.36782023
-0.10060066 -0.032931063 -0.13616656 0.031208657 0.04681307 0.15046853 0.3305553 0.40250042
0.40574548 0.13675533 -0.19543204 0.23700067 0.0011204114 0.08045893 -0.10375374 -0.21586847

encoder.e_layer_two.bias f4 [4]
00000000: b71c 5abe e2a2 c0be 5e56 ae3e b31f c43d
-0.21300016 -0.3762427 0.34050268 0.09576359

encoder.e_layer_three.weight f4 [8, 4, 5]
00000000: 8b23 8c3e ee7a ab3d a6c2 4f3e 9f16 98bd
00000010: a275 8f3d 000c 523e f98d 593d 0853 493e
00000020: 4c48 2cbe de5f 463e bfc1 93bd a2e7 08be
00000030: f416 bc3b 6d69 2e3e 5937 d5bb c987 17be
00000040: 0a51 efbd 3fae 183a e02f 8c3e 662b 09be
00000050: 2831 d6bd 06c7 cabc b2aa 2fbd 1ebf ab3d
00000060: 7633 3c3e 6117 31bd 228a 28be 131a a2be
00000070: a0a8 f7bc ada5 8fbd 962a 90bd 6b31 3a3e
00000080: 69ff aa3d 15a7 21be c30d 22be 1c17 9c3d
00000090: d72f 633e 6bd0 acbc aa00 dcbc 6c50 7abe
000000a0: ec09 dbbd 54ae ad3d 7eea d7bc 708c 5ebe
000000b0: 80f2 1bbe 9ec1 cc3d 4823 1e3e 6cb0 dcbc
000000c0: 90c0 87bd a33a c83d c840 483e 08ce 04be
000000d0: 0fc3 d83d fea1 0fbd 61f0 02be 0f5d 6b3d
000000e0: ec50 9a3c 1d59 dd3d 2170 fabd f06f 8f3e
000000f0: a963 50be 83db 0c3d 9c41 803d 1d22 9b3e
00000100: 2b94 933d 69d9 6dbe 8f86 39be cf17 4fbe
00000110: d23e 053e e448 98be 8691 b83d 5ecf aabd
00000120: 355e 3bbd a1b5 823d c970 d9bd ea54 353e
00000130: 7627 77be 021f bbbd a362 a83c 6527 44be
00000140: 24bf 11be 2300 493e d7f0 363e 7a10 0d3e
00000150: 6845 16bd e7d1 2abe f516 d13d a515 f5bd
00000160: e5db 1b3e 3fc6 ccbc bc58 6f3c b85d 443e
00000170: c7e8 c1bd a244 643e 5cd2 703e 7c02 d13d
00000180: dbb3 9dbe ecc1 8dbc 258c 4b3d 6e5c 6fbe
00000190: 517a 39be 32ca 633e 0821 07bc 4b18 58be
000001a0: 5e08 793e 03da 51be 0c9d 8d3d 0280 f83c
000001b0: c3fe 14be 8d0b 7dbe 3079 83be ef30 55bc
000001c0: 1496 df3d afd5 1d3e d444 61be d9ff a93d
000001d0: 3b9d 8e3d adb1 7f3e 2f64 1d3e 9204 65be
000001e0: 05f1 223e 3fb6 9bbd 645d e0bd 83cb d03c
000001f0: 09a7 4dbd f1b0 81bd 7c9d 39be 08e9 56bd
00000200: f47e 6fbe b974 c73d ecf9 fb3c 2d89 62bd
00000210: d440 e4be ff84 e3bd 49dc e9bd d34e 113e
00000220: 9190 bebd c1f4 12be 945d d33e aa5c 0ebe
00000230: 0a53 af3d c414 12be 259e b83c 27bb 4bbe
00000240: f92a e83d 4b02 ac3d aa0e 1ebe 7a7d babd
00000250: 1775 003e 00e0 2d3d 9cf5 72be 454c babd
00000260: cad4 763d 8182 e7bc 3d68 41be baab ca3d
00000270: 6d05 dd3d 9fc9 fdbd 6e4d 43bd 622e 673e
0.27370867 0.08373056 0.20289096 -0.0742619 0.070048586 0.2051239 0.05311391 0.1966058
-0.16824454 0.19372508 -0.072146885 -0.13369611 0.005740041 0.17032404 -0.006506842 -0.14797892
-0.11685379 0.00058243045 0.27380276 -0.13395461 -0.104585946 -0.024753105 -0.042887397 0.08386062
0.18379006 -0.043235186 -0.16458943 -0.31660518 -0.030231774 -0.07014022 -0.070393726 0.18182914
0.08349497 -0.15786393 -0.15825562 0.07621595 0.22186218 -0.021095475 -0.026855785 -0.24444741
-0.10695252 0.08480516 -0.026356932 -0.2173326 -0.15229225 0.09997867 0.15443146 -0.026939593
-0.06628525 0.09776809 0.19555962 -0.1296922 0.105840795 -0.035066597 -0.1278701 0.057461794
0.018837415 0.10808013 -0.12228418 0.2801509 -0.20350517 0.03438903 0.06262514 0.30299464
0.07205995 -0.23227467 -0.18117736 -0.20223926 0.13012245 -0.2974311 0.090121314 -0.083403334
-0.04574414 0.06382299 -0.10617215 0.17708173 -0.24136147 -0.09136774 0.020554846 -0.19155653
-0.1423307 0.19628958 0.1786531 0.13775817 -0.036687285 -0.16681634 0.10209457 -0.11967019
0.15220602 -0.024996875 0.014608558 0.19176376 -0.09468227 0.22291806 0.23517746 0.10205552
-0.3080128 -0.017304383 0.0496942 -0.23375103 -0.18113066 0.222451 -0.008247621 -0.21103017
0.24319598 -0.20493321 0.0691472 0.030334476 -0.14550309 -0.24711438 -0.25678396 -0.013012155
0.10917297 0.15413545 -0.21998912 0.08300752 0.06963583 0.24970122 0.15370248 -0.22365025
0.15912254 -0.0760312 -0.10955313 0.025487667 -0.050208125 -0.06332577 -0.18126482 -0.05246833
-0.23388273 0.0973906 0.03075882 -0.055306602 -0.4458071 -0.11109351 -0.11418969 0.14190225
-0.093049176 -0.14351179 0.41282332 -0.13902536 0.0856076 -0.14265734 0.022536347 -0.19895612
0.113363214 0.08398875 -0.15435281 -0.09105964 0.12544666 0.04244995 -0.23726505 -0.090965785
0.060261525 -0.028260471 -0.1888742 0.098960355 0.107920505 -0.12391972 -0.047681265 0.22576287

encoder.e_layer_three.bias f4 [8]
00000000: 46b0 23be 8465 f13d 3c48 a5bd 9ab0 3e3e
00000010: 85a0 d2bd 3711 c4bd 12eb 8ebd b8af 5abe
-0.15985212 0.11786941 -0.08070418 0.18622056 -0.10284523 -0.09573596 -0.0697843 -0.21356094

encoder.e_layer_four.weight f4 [16, 8, 5]
00000000: b54c 263d 6ff7 9f3c de21 713c bde8 993e
00000010: 71d0 e73d f8c0 113c 20e7 823d e2b2 55bd
00000020: 4b85 0ebe 2095 dfbd ffed 23bd 46c4 f8bd
00000030: c228 69bd 9396 18be 3aa6 55be 1741 18be
00000040: 3b3e 1a3e 3cbb b33d 53d8 97bd 6606 273e
00000050: 1bdd 193e a06b 193d fd22 823c 74ca 713d
00000060: 88aa ff3d e529 9cbd 3567 be3d 1c37 5dbe
00000070: 535e ff3d ea06 c7bc 7878 553e 06e2 52be
00000080: d9f9 30bd 7c8e a8bd 3b52 6c3c 682a 14be
00000090: 448b abbd e66b adbc 2db6 883c 5a3a 39bd
000000a0: 9c7c b83d a0bc f5bc f7f6 0a3e 29a0 833d
000000b0: 3684 883d 487a 2c3e 6e68 7c3c 26c2 a6bd
000000c0: 5466 523e 8fae 4c3b 9693 1bbe fe89 afbd
000000d0: f9cb 833d 1e02 2f3d 9637 b9bd 98e8 46bd
000000e0: 88c2 14bd 7577 bcbd 0285 e03d 19bd 583e
000000f0: 5942 073e 9dc3 8fbc f706 b5bc f351 bc3d
00000100: 0d4b 713e 9d6b c43d d157 51be 7644 273e
00000110: 7f4a c1bd 108d 8e3d 1d51 a43d 7ba9 0d3e
00000120: c403 b43d 5515 d5bd 7ce5 0bbe 50f8 bfbd
00000130: 09b7 a1bd 8167 cabd 13bf 013d 04cf e8bd
00000140: 6015 a3bd a313 dd3d 06e2 cabd 08f7 463e
00000150: b86a 513e 4d73 1f3d ec10 b53d 9272 b43c
00000160: 2a7c 8fbd a5d3 7cbc 5feb 9f3d ae94 f4bd
00000170: 6d7b f7bd cd52 29bd 1f7d 9f3d 4c8b ebbd
00000180: ea4d 2e3e 57c6 3d3e a313 84bd 20fd a93d
00000190: d14a 9b3d 1c36 cb3d 48b1 e93d 17f6 503d
000001a0: cbdb 28be bbbe dbbc e662 413e 2eaf 35be
000001b0: 37c6 bcbd 55a1 21be b49b 233d 1ec7 543d
000001c0: 9a77 f8bb 5c92 353e 9493 303e dc6b 2dbd
000001d0: fa3f f8bd 139f 15be c06f 10be 1cb8 abbd
000001e0: d375 33bd 3a8b de3c c699 4e3e 3d79 2ebe
000001f0: 2a93 29be 6c64 b33d 7dfc 80bd 6ba4 b7bd
00000200: b926 3cbd 727e 2ebd e4ed d3bd e813 15bd
00000210: 45f9 853c 53c1 153e c2a5 523e aa1a f63c
00000220: f526 d0bd 3574 4c3c 1ed3 b3bd 4753 3d3d
00000230: 030d 8e3d 7fa2 42be 972e 22bd cfb2 57be
00000240: d9fe 543e 3d99 0c3d 8a84 c1bc 93b8 133d
00000250: 45d9 183e 8847 d13d 8ae2 f33d 571d b9bd
00000260: 37c9 a43d c47e ae3c cd9e 3abe 65ab 063e
00000270: 89d6 533e f3de e03d 6cba a5ba 81f7 66bd
00000280: 6e1c ca3d f3ca 8cbd 0e8c 2d3e e25a 1cbe
00000290: ffbd 98bd 2f0f 47be e410 95bd b9a4 5bbd
000002a0: 4303 d43d 74f9 f6bd 4495 d33d d0e2 763e
000002b0: 41e1 323e 7b84 043e 8f4e 7a3e 1906 32be
000002c0: 2bd8 703c fde2 82be 5dc8 5fbe 78d4 8a3d
000002d0: f536 7f3d c0aa 513d 11cb 233c bc9f 5bbd
000002e0: a93a 3b3e 431a 9abc 38c7 ca3d 5822 a93d
000002f0: 31cb 4b3d 36bd 3e3e 3355 6abd 7dd6 223d
00000300: 4978 aabd 2f6e 1fbd 278f 16be 0023 4cbd
00000310: 7b64 d43d 0009 2a3e 3349 0f3e f526 50be
00000320: 7c1c e0bc 6490 6d3d 39c8 663e 402b 0a3e
00000330: dc09 053e cd6b 063e 56a0 fb3c 0e3a db3d
00000340: 3a29 e93d af5e 1f3e d9f0 803d 660b 933d
00000350: 3725 f7bd b765 203d e166 513d 9980 06be
00000360: 60ef 553e e617 cd3d ca70 7a3c 4b36 58bd
00000370: ba6b af3d e5d3 7c3e ac6d 013b f9b1 a7bc
00000380: 658c a1bd 6aaf 79bd b14f 1cbe adb8 303e
00000390: d109 063d d9d2 b43d 5d6f abbd 45fe a1bd
000003a0: b15c c63d 41fb d3bc 24e1 e4bd 07b0 acbd
000003b0: 7b16 02be feaa b5bd 02b7 2bbd 684c 0f3d
000003c0: 0cdf acbd f7bb 2dbc ae4f 973d 9cbc 52bd
000003d0: 97b1 64bd a4d9 eb3c 219c 28be f7a2 893d
000003e0: c9aa 38bd 38ce b53c 8e70 30bd f742 0fbe
000003f0: 57bc 25be f22d 23be baf6 5cbd 19c3 ec3d
0.040600497 0.019527165 0.014717547 0.30060378 0.11319054 0.008896105 0.0639174 -0.05217255
-0.13918035 -0.10917115 -0.040021893 -0.12146811 -0.056923635 -0.1490119 -0.20864192 -0.1486858
0.15062802 0.087759465 -0.074143074 0.16311035 0.15025751 0.037456155 0.015885824 0.059030965
0.12483698 -0.07625178 0.09297029 -0.21603054 0.12469163 -0.02429529 0.20846736 -0.20594034
-0.043207023 -0.08230302 0.014423902 -0.14469302 -0.08376172 -0.021169614 0.01668843 -0.045221664
0.09008142 -0.02999717 0.13570772 0.064270325 0.06665842 0.16843522 0.015405757 -0.081424996
0.20546848 0.0031231975 -0.15193018 -0.08571242 0.06435389 0.04272663 -0.09043805 -0.048561662
-0.036318332 -0.09202472 0.10962869 0.21165885 0.13208903 -0.01754933 -0.022098048 0.09195318
0.23563786 0.09590838 -0.20443656 0.1633471 -0.09438037 0.06960499 0.08023284 0.13834183
0.08789781 -0.104044594 -0.1366176 -0.09373534 -0.07896239 -0.09883023 0.031676363 -0.1136761
-0.07963061 0.10794761 -0.09906392 0.19430172 0.20450866 0.03892832 0.08841118 0.022027288
-0.07006104 -0.015431319 0.07808565 -0.11942421 -0.120840885 -0.04133873 0.07787537 -0.11501178
0.1702191 0.18532692 -0.06449058 0.08300233 0.075826295 0.0992243 0.11410767 0.05101594
-0.16490094 -0.026824346 0.18885383 -0.17742607 -0.09217494 -0.157842 0.039943412 0.051947705
-0.007582617 0.17731613 0.17243797 -0.04233919 -0.121215776 -0.14611463 -0.14105129 -0.083847255
-0.043813538 0.027165998 0.20175847 -0.17038436 -0.16560045 0.08759388 -0.06298158 -0.08966907
-0.045935366 -0.042601056 -0.103481084 -0.036395937 0.016354213 0.14624529 0.20571044 0.030042011
-0.101636805 0.012478878 -0.08780502 0.046221998 0.069360755 -0.190073 -0.039595213 -0.21064304
0.20800342 0.034325827 -0.02362277 0.036064696 0.14926632 0.10218722 0.11908443 -0.09038799
0.08046191 0.021300681 -0.1822464 0.1315132 0.20687307 0.10980024 -0.0012644059 -0.056388382
0.09868704 -0.06874647 0.16947958 -0.15269044 -0.07458114 -0.19439386 -0.07278612 -0.05362389
0.103521846 -0.12059298 0.103312045 0.2410996 0.1746874 0.12941162 0.2444403 -0.17385139
0.014699976 -0.25563803 -0.21853776 0.067788064 0.06230827 0.05118823 0.009997145 -0.05361913
0.18284096 -0.01881135 0.09901279 0.08258504 0.049754325 0.18626866 -0.05721016 0.039755333
-0.08323724 -0.03892344 -0.14703046 -0.049838066 0.10370728 0.16604996 0.13992767 -0.20327361
-0.027357332 0.05799903 0.22537316 0.13493061 0.12992042 0.1312706 0.030716103 0.107044324
0.113848165 0.15563463 0.06295938 0.071799085 -0.12067645 0.039159503 0.051123504 -0.13134994
0.20892096 0.10014324 0.01528568 -0.052786153 0.08565469 0.24690206 0.0019749207 -0.020470606
-0.07888106 -0.060958304 -0.15264775 0.17257948 0.032724205 0.088292785 -0.0837085 -0.07909826
0.09685648 -0.025876643 -0.11175755 -0.08432012 -0.12703888 -0.08870505 -0.041922577 0.034984976
-0.0844098 -0.010603896 0.073882446 -0.051449403 -0.055833425 0.028790303 -0.16465808 0.06720536
-0.04508475 0.02219306 -0.04307609 -0.13990389 -0.16185127 -0.15935495 -0.053946234 0.115606494

encoder.e_layer_four.bias f4 [16]
00000000: f164 6d3d e70a 57bd d1fc 2e3e b20b 72bd
00000010: 062d dfbc 1c7c 70bd 9917 d53d 2b5f 31be
00000020: a648 ec3d 909e f13d 9a69 483d 53d7 54bd
00000030: 6648 e2bd 65f9 083e fe01 023e 96e2 433b
0.057957593 -0.05250063 0.1708863 -0.059093185 -0.027243149 -0.05871211 0.104048915 -0.1732146
0.11537294 0.117978215 0.048928834 -0.05196316 -0.11048965 0.13376386 0.12696072 0.0029889694

encoder.encoder_layer.0.layer.weight f4 [2, 1, 5]
00000000: 8895 143e b7aa 5abe 3d3c b43d 8b5f 9dbe
00000010: 8fa9 c5be f549 003f ad92 cb3e a301 38be
00000020: 0e48 5d3d 691f 86be
0.14510167 -0.21354185 0.08800552 -0.30736956 -0.38605925 0.5011285 0.39760342 -0.17969374
0.054023795 -0.2619584

encoder.encoder_layer.0.layer.bias f4 [2]
00000000: 7ac3 b33e 925b 913d
0.35110074 0.07097544

encoder.encoder_layer.0.residual_stack.Residual_layers.conv_one.weight f4 [2, 2, 7]
00000000: e1f3 673d a5dc 5cbd a320 bdbd 2eba 753e
00000010: 99c1 533e ea54 db3d 3321 453e 9984 1d3e
00000020: 3f4c bfbd cd90 063d 0079 87be b18f 2bbe
00000030: 3fa5 93be bc90 2b3e 1b1b 51bc 0ef9 17be
00000040: 3fda 22be 0d26 f1bd 022c 91bd 230e 0dbe
00000050: 6be6 803a dd8c 98be 9528 d7bd 1b3a 493d
00000060: 3c19 713e ce42 8fbe 1583 b5be cd17 babe
0.056629065 -0.05392136 -0.092347406 0.23996803 0.2067932 0.107095554 0.19250946 0.15382613
-0.09340715 0.032852937 -0.26459503 -0.16754033 -0.2883701 0.1675443 -0.01276281 -0.148411
-0.15903567 -0.11774836 -0.07088472 -0.13774924 0.0009834295 -0.2979497 -0.10505787 0.04912768
0.23544782 -0.27980655 -0.3545157 -0.36346284

encoder.encoder_layer.0.residual_stack.Residual_layers.conv_one.bias f4 [2]
00000000: b1f5 8739 2e2a 0a3c
0.0002593226 0.008432908

encoder.encoder_layer.0.residual_stack.Residual_layers.conv_two.weight f4 [2, 2, 1]
00000000: d86b fd3e 22cb 203f a9a7 ffbe 748c 65be
0.4949634 0.62809956 -0.49932602 -0.2241686

encoder.encoder_layer.0.residual_stack.Residual_layers.conv_two.bias f4 [2]
00000000: ae03 1a3f 7f44 2d3f
0.60161865 0.6768264

encoder.encoder_layer.1.layer.weight f4 [4, 2, 5]
00000000: 0d79 923d 0318 51be 2288 2d3e 3350 ecbd
00000010: 97bc 603e f9eb a33e 211a cb3d ee1a 723e
00000020: 4ca7 b23e 7c69 c03e 2467 97be 08f6 69be
00000030: f0e4 abbd 23f8 003e c3ee 5c3c 6ba3 6bbe
00000040: 87bf 6e3e 383e 06be b905 8abe b76f 053e
00000050: acf5 373e 0256 983e f1cf f43d ef52 bcbe
00000060: b807 cebd b9e2 06bd 3f6f 0bbe 4ca9 ff3c
00000070: 10bf 3f3d 6c14 1a3e 8b3e a93e 8914 ce3e
00000080: dfbd cf3e 9709 0c3e 561f 48be 4eb0 723e
00000090: c5da 923a a7c7 a43d d77c d4bd a00c 5dbe
0.07151995 -0.20419316 0.16946462 -0.11538734 0.21946941 0.3201597 0.09917093 0.23643085
0.34893262 0.37580478 -0.29570878 -0.2284776 -0.08393276 0.12594657 0.01348466 -0.23011558
0.2331525 -0.13109672 -0.2695749 0.13030897 0.1796481 0.2975312 0.11953724 -0.36782023
-0.10060066 -0.032931063 -0.13616656 0.031208657 0.04681307 0.15046853 0.3305553 0.40250042
0.40574548 0.13675533 -0.19543204 0.23700067 0.0011204114 0.08045893 -0.10375374 -0.21586847

encoder.encoder_layer.1.layer.bias f4 [4]
00000000: b71c 5abe e2a2 c0be 5e56 ae3e b31f c43d
-0.21300016 -0.3762427 0.34050268 0.09576359

encoder.encoder_layer.1.residual_stack.Residual_layers.conv_one.weight f4 [4, 4, 7]
00000000: 3e79 233d 050f 903d 5329 8dbc d192 92bd
00000010: eece 62be a36e 0abe 4c76 05be cb6a d53d
00000020: 166d aa3c 575b 89be 7357 2ebe 7dcd 4cbe
00000030: e199 7abd 5e51 77be 1a4b e93c c448 6a3e
00000040: 3146 ddbd 3bc3 84be e2ec 1cbe 9919 943e
00000050: 183b a0bd 002c 503e b161 403e a6ea 49ba
00000060: 1567 5dbd 42a2 983d c403 c93c f3e0 913e
00000070: 44ef fc3d 6c42 c1bd 49b6 863a 7d2e ae3d
00000080: be4c 783d 6990 0fbe 5199 b93d dafb f63d
00000090: 9162 393e c9a2 cdbd 1400 12be 0f5b 213e
000000a0: 80b3 ea3c 6034 97bd d0ad 02bd ff61 6a3b
000000b0: b428 08bd d8b2 18be 45c6 83be 9f64 8b3d
000000c0: 25e7 5dbd 7e31 51be fff0 3fbd 17cc 0d3e
000000d0: a903 77be 80ce 983d b0de 52bd b4dd b4bc
000000e0: 6ebe 78bd b64d 9d3d 968a e8bd 5313 073e
000000f0: 8dba dcbd ded3 e0bc 177c bb3d f3b0 753d
00000100: 3248 4f3d 6bca bc3d a45f bdbc 1e18 3f3e
00000110: 803d a93d f9d8 a03c 5ec0 5ebe cdc7 013e
00000120: 27d4 49be bc95 1b3e 0b34 323e beba 30be
00000130: 553c f9bd 2458 bc3c 1ca5 febd 3482 163c
00000140: 499b b4bd f6b4 1b3e a043 15be c186 0b3e
00000150: 5b60 053e 80ec d4bc ac9e 593d 552a 52be
00000160: 5a14 403e 9278 a9bd 391f 173e 8f0e 34bd
00000170: 40de 5fbe 463d 2cbe dd36 b23d 33a8 9d3d
00000180: bb99 2d3e 1234 dc3d f623 003e 670d f33c
00000190: a89f ecbd f9d4 90bc 3ed5 3f3d 76d2 0cbe
000001a0: d6dc 883d 191d e0bd 773c 933d 26ef 3e3e
000001b0: 4764 8f3e eb7e d63d c8de 153d 25b8 233d
0.039910547 0.07034115 -0.017231619 -0.07156909 -0.2214925 -0.13518767 -0.13033408 0.1042076
0.02080397 -0.268275 -0.17025547 -0.20000263 -0.061181907 -0.24152133 0.028478194 0.2287932
-0.108044036 -0.259302 -0.15324739 0.2892578 -0.07823771 0.20329285 0.18787266 -0.0007702507
-0.054053385 0.07452823 0.024537928 0.28491935 0.12350324 -0.09436497 0.0010277714 0.08504961
0.060620062 -0.14019932 0.09062446 0.120597556 0.18104006 -0.100408144 -0.14257842 0.15757392
0.028650045 -0.073830366 -0.03190404 0.0035763977 -0.033241943 -0.14911973 -0.25737205 0.06806301
-0.054175515 -0.20429036 -0.04686069 0.13847385 -0.2412249 0.07461262 -0.051481903 -0.022078373
-0.060728483 0.07680838 -0.11354558 0.13190965 -0.10777769 -0.027444776 0.09154528 0.059983205
0.05060596 0.09218296 -0.023116894 0.18661544 0.08263683 0.01963471 -0.2175307 0.12673874
-0.19709836 0.15193838 0.17402665 -0.17258736 -0.121697105 0.022991247 -0.12433836 0.009186316
-0.08818681 0.1520575 -0.14576578 0.13625623 0.13025038 -0.025991678 0.053129837 -0.20523961
0.18757764 -0.0827495 0.14758004 -0.043959197 -0.21862125 -0.16820249 0.087018706 0.07698097
0.16953175 0.10752119 0.12513718 0.029669477 -0.115538895 -0.017679678 0.046834223 -0.1375216
0.06682746 -0.1094305 0.07189267 0.18645915 0.28006193 0.104734264 0.036589414 0.039970536

encoder.encoder_layer.1.residual_stack.Residual_layers.conv_one.bias f4 [4]
00000000: 3112 cdbb fd7c 2f3e 84cc adbc f1ab a8bd
-0.006258272 0.17137523 -0.021215685 -0.0823592

encoder.encoder_layer.1.residual_stack.Residual_layers.conv_two.weight f4 [4, 4, 1]
00000000: 2a6d e23e 0739 1a3e e248 77be 8716 d3be
00000010: a42b 90bd c590 c23e e483 d83e c38f 0ebf
00000020: f41c 09bf 1793 8b3d 303c f9bd 55a1 79be
00000030: d24f d33d a11a 8fbe 4146 053e 6560 153f
0.4422391 0.15060817 -0.24148896 -0.41228124 -0.07039574 0.38001075 0.42288125 -0.5568811
-0.53559804 0.068151645 -0.12169683 -0.2437795 0.10317959 -0.27950004 0.13015081 0.5835021

encoder.encoder_layer.1.residual_stack.Residual_layers.conv_two.bias f4 [4]
00000000: 4225 5cbe 251d 17be 8b4e afbe 82da c5be
-0.21498588 -0.14757212 -0.3423961 -0.3864327

encoder.encoder_layer.2.layer.weight f4 [8, 4, 5]
00000000: 8b23 8c3e ee7a ab3d a6c2 4f3e 9f16 98bd
00000010: a275 8f3d 000c 523e f98d 593d 0853 493e
00000020: 4c48 2cbe de5f 463e bfc1 93bd a2e7 08be
00000030: f416 bc3b 6d69 2e3e 5937 d5bb c987 17be
00000040: 0a51 efbd 3fae 183a e02f 8c3e 662b 09be
00000050: 2831 d6bd 06c7 cabc b2aa 2fbd 1ebf ab3d
00000060: 7633 3c3e 6117 31bd 228a 28be 131a a2be
00000070: a0a8 f7bc ada5 8fbd 962a 90bd 6b31 3a3e
00000080: 69ff aa3d 15a7 21be c30d 22be 1c17 9c3d
00000090: d72f 633e 6bd0 acbc aa00 dcbc 6c50 7abe
000000a0: ec09 dbbd 54ae ad3d 7eea d7bc 708c 5ebe
000000b0: 80f2 1bbe 9ec1 cc3d 4823 1e3e 6cb0 dcbc
000000c0: 90c0 87bd a33a c83d c840 483e 08ce 04be
000000d0: 0fc3 d83d fea1 0fbd 61f0 02be 0f5d 6b3d
000000e0: ec50 9a3c 1d59 dd3d 2170 fabd f06f 8f3e
000000f0: a963 50be 83db 0c3d 9c41 803d 1d22 9b3e
00000100: 2b94 933d 69d9 6dbe 8f86 39be cf17 4fbe
00000110: d23e 053e e448 98be 8691 b83d 5ecf aabd
00000120: 355e 3bbd a1b5 823d c970 d9bd ea54 353e
00000130: 7627 77be 021f bbbd a362 a83c 6527 44be
00000140: 24bf 11be 2300 493e d7f0 363e 7a10 0d3e
00000150: 6845 16bd e7d1 2abe f516 d13d a515 f5bd
00000160: e5db 1b3e 3fc6 ccbc bc58 6f3c b85d 443e
00000170: c7e8 c1bd a244 643e 5cd2 703e 7c02 d13d
00000180: dbb3 9dbe ecc1 8dbc 258c 4b3d 6e5c 6fbe
00000190: 517a 39be 32ca 633e 0821 07bc 4b18 58be
000001a0: 5e08 793e 03da 51be 0c9d 8d3d 0280 f83c
000001b0: c3fe 14be 8d0b 7dbe 3079 83be ef30 55bc
000001c0: 1496 df3d afd5 1d3e d444 61be d9ff a93d
000001d0: 3b9d 8e3d adb1 7f3e 2f64 1d3e 9204 65be
000001e0: 05f1 223e 3fb6 9bbd 645d e0bd 83cb d03c
000001f0: 09a7 4dbd f1b0 81bd 7c9d 39be 08e9 56bd
00000200: f47e 6fbe b974 c73d ecf9 fb3c 2d89 62bd
00000210: d440 e4be ff84 e3bd 49dc e9bd d34e 113e
00000220: 9190 bebd c1f4 12be 945d d33e aa5c 0ebe
00000230: 0a53 af3d c414 12be 259e b83c 27bb 4bbe
00000240: f92a e83d 4b02 ac3d aa0e 1ebe 7a7d babd
00000250: 1775 003e 00e0 2d3d 9cf5 72be 454c babd
00000260: cad4 763d 8182 e7bc 3d68 41be baab ca3d
00000270: 6d05 dd3d 9fc9 fdbd 6e4d 43bd 622e 673e
0.27370867 0.08373056 0.20289096 -0.0742619 0.070048586 0.2051239 0.05311391 0.1966058
-0.16824454 0.19372508 -0.072146885 -0.13369611 0.005740041 0.17032404 -0.006506842 -0.14797892
-0.11685379 0.00058243045 0.27380276 -0.13395461 -0.104585946 -0.024753105 -0.042887397 0.08386062
0.18379006 -0.043235186 -0.16458943 -0.31660518 -0.030231774 -0.07014022 -0.070393726 0.18182914
0.08349497 -0.15786393 -0.15825562 0.07621595 0.22186218 -0.021095475 -0.026855785 -0.24444741
-0.10695252 0.08480516 -0.026356932 -0.2173326 -0.15229225 0.09997867 0.15443146 -0.026939593
-0.06628525 0.09776809 0.19555962 -0.1296922 0.105840795 -0.035066597 -0.1278701 0.057461794
0.018837415 0.10808013 -0.12228418 0.2801509 -0.20350517 0.03438903 0.06262514 0.30299464
0.07205995 -0.23227467 -0.18117736 -0.20223926 0.13012245 -0.2974311 0.090121314 -0.083403334
-0.04574414 0.06382299 -0.10617215 0.17708173 -0.24136147 -0.09136774 0.020554846 -0.19155653
-0.1423307 0.19628958 0.1786531 0.13775817 -0.036687285 -0.16681634 0.10209457 -0.11967019
0.15220602 -0.024996875 0.014608558 0.19176376 -0.09468227 0.22291806 0.23517746 0.10205552
-0.3080128 -0.017304383 0.0496942 -0.23375103 -0.18113066 0.222451 -0.008247621 -0.21103017
0.24319598 -0.20493321 0.0691472 0.030334476 -0.14550309 -0.24711438 -0.25678396 -0.013012155
0.10917297 0.15413545 -0.21998912 0.08300752 0.06963583 0.24970122 0.15370248 -0.22365025
0.15912254 -0.0760312 -0.10955313 0.025487667 -0.050208125 -0.06332577 -0.18126482 -0.05246833
-0.23388273 0.0973906 0.03075882 -0.055306602 -0.4458071 -0.11109351 -0.11418969 0.14190225
-0.093049176 -0.14351179 0.41282332 -0.13902536 0.0856076 -0.14265734 0.022536347 -0.19895612
0.113363214 0.08398875 -0.15435281 -0.09105964 0.12544666 0.04244995 -0.23726505 -0.090965785
0.060261525 -0.028260471 -0.1888742 0.098960355 0.107920505 -0.12391972 -0.047681265 0.22576287

encoder.encoder_layer.2.layer.bias f4 [8]
00000000: 46b0 23be 8465 f13d 3c48 a5bd 9ab0 3e3e
00000010: 85a0 d2bd 3711 c4bd 12eb 8ebd b8af 5abe
-0.15985212 0.11786941 -0.08070418 0.18622056 -0.10284523 -0.09573596 -0.0697843 -0.21356094

encoder.encoder_layer.2.residual_stack.Residual_layers.conv_one.weight f4 [8, 8, 7]
00000000: 890f 393d ea7f 1c3c 0428 92bc 23f8 4f3d
00000010: 808e a8bc c6ef 71bd f3aa fc3a 2d73 96bd
00000020: 6291 8e3d 05db 21be 6a30 77bd 3481 21be
00000030: aaab b73d ba82 7a3d 139c 1b3e 664a 8cbd
00000040: 3f58 9e3d 1b9f 0abc d713 c23d 4cc2 abbb
00000050: 61fd c93d f2c7 63bd 8dff 133d 2150 34bb
00000060: d56e 3abe 7315 7abc 72e1 d6bd 7501 c83d
00000070: 51c2 213d edd3 eabb 77f9 403d 3e91 e9bd
00000080: f3d8 c73d 8e4e f8bd 30c5 3a3d ff9c a8bd
00000090: 58ee dbbd 46a7 83bd 7bde ecbd 1e4f 5e3d
000000a0: f070 5cbd 3ac5 88bd d168 6cbc 6e08 87bd
000000b0: d33a 533d 6a27 8e3d ed27 24be b707 b5bc
000000c0: 1265 b63c c960 36bd caf8 08be d067 25be
000000d0: 5d85 183e 9b30 b23d 641d 253d 6772 deb9
000000e0: 30d4 67bd a804 753b c62b 35be 3a02 d53c
000000f0: 5487 503d bb27 793c 8fef c5bb d3e9 eb3d
00000100: 9a79 813d e309 8cbc 2ee4 9abd 803c d33d
00000110: 1adf cabd 5d57 813d 4716 8e3d 9268 c53d
00000120: 145c 903c ea7e 023e fd33 0f3c 16f3 443d
00000130: b287 353c 9fbc 8dbc 39f8 f0bd d18d 313d
00000140: 9e7e 003e 295a cd3d 2533 92bd 777b b03d
00000150: cc14 e3bd 715d d53d b7fa 2cbe c30e 713c
00000160: 8220 e63c 35f7 4b3d e1c7 023d 0fbc 563d
00000170: 934d a2bd 35c9 07be 2902 ad3d b365 24bd
00000180: f608 873d 488f 323e 7190 583d b230 0b3e
00000190: 591a 71bd 38af 9c3d 75cf 05bd 7436 83bd
000001a0: d4b0 2dbd c01f a8bd 6ba6 5cbd cb07 233e
000001b0: e9e8 c0bd 3cef 18be 3318 a43d 08a8 e3bd
000001c0: 592d 773d 9377 423e 96b2 77bc 0275 0fbe
000001d0: 2d92 243d 1491 aebd 276f 83bc 58bf 9ebd
000001e0: c902 04be a441 f63d 683c 1cbe ce88 1bbe
000001f0: 8105 49bd c454 893d 6302 63bc 3c29 8a3d
00000200: f091 bdbd 022c 213d 0dfa 723e e225 1a3e
00000210: 499c c13d e02e ab3d 0e53 27be d6ad 11be
00000220: eeb0 f7bd 5f83 873c 0213 203e 5c89 103d
00000230: 14dc b93d ba28 443d 49d4 8ebd cc50 433b
00000240: aaad f73d 2840 0f3e b185 d33c 267d f93d
00000250: 1ee2 863d 55d0 2c3d 6a86 c7bd 977f e93b
00000260: 4487 cd3d a96b 1a3e 17d2 943d a968 9fbd
00000270: 2824 5abe 5f60 66be f31c b2bd 2e56 233e
00000280: 983a 7e3d e1e0 af3c 81bc be3d bc2c fc3d
00000290: 5e3f b53c e970 35be 31e1 5dbd 8c4a a1bd
000002a0: 2a49 b93c 5c5a 563c 3840 d13b b46e 0e3e
000002b0: 6de6 aebd 61ec 9ebc 4305 68bd 359d ac3d
000002c0: 282e 3e3d 3a4f 0bbe 16be afbd e920 9c3d
000002d0: f466 3f3b a25e dd3c 8e9c 023a 7fbc b7bd
000002e0: afb1 9fbb 10d1 30bd 807e 6f3d 0a17 ca3d
000002f0: cb62 7c3d 6e81 273e d9cb 3cbd 62a5 a1bd
00000300: 5730 d8bd d873 c03d 884e febc bb1d b93d
00000310: 768f 103d 6a43 d33b 5bd0 c7bd d4a5 6a3c
00000320: daf2 2c3d ca80 0ebe d653 80bc 0495 b23d
00000330: b222 eabb a03a dbbd fd91 433e 702c c83d
00000340: be01 373e 25d5 123e c474 6d3b 1b6e ed3d
00000350: 4323 44bd 70a2 a0bc eacc 99bc 342a 033d
00000360: 196e b5bd f09e 13bd 70e8 1b3e 174a dbbd
00000370: 27f9 883d ceda 273e 5b3f f0bd 933e 3739
00000380: e430 373c 9c6e cf3d f7dd 053e 37d6 29be
00000390: 0ecd a13d e845 103d a0a9 8b3c 9f8f fa3c
000003a0: bf00 813b 8d97 07be ed4d 263e 8531 80bc
000003b0: 3dea 173d a1e0 cb3d 4240 c63d 83be 8abd
000003c0: a67d f63c 3edc 3e3e 2cf3 4c3e 328a 893d
000003d0: a88e cb3d 2212 d3bd 6a87 17be e1ae bb3c
000003e0: 8aca 933b e917 4d3d bbe7 c1bd b52c a0bc
000003f0: 771d 50bd 84f8 483d 9bba cf3d 5fdd 02bc
0.04518083 0.009551981 -0.017841347 0.05077375 -0.020575762 -0.059066556 0.0019277021 -0.07346187
0.06961323 -0.15806206 -0.060348906 -0.15771943 0.08968289 0.061159827 0.15196256 -0.06850128
0.07731675 -0.008460785 0.094764404 -0.005241668 0.09862781 -0.055610605 0.036132384 -0.002751358
-0.18206342 -0.015263903 -0.10492219 0.09765903 0.039491955 -0.007166377 0.04711291 -0.11404656
0.09758177 -0.12124358 0.04559821 -0.0823307 -0.1073882 -0.06428389 -0.11565872 0.05427467
-0.053818643 -0.06678243 -0.014429287 -0.06593405 0.05156977 0.069411114 -0.16030855 -0.022098405
0.022264991 -0.044525895 -0.13376155 -0.16152883 0.14894624 0.08700677 0.040311232 -0.00042428376
-0.056598842 0.0037386809 -0.1769248 0.026002038 0.05091031 0.015207226 -0.0060405205 0.11519208
0.06322022 -0.017094558 -0.07563053 0.10314274 -0.099058345 0.06315491 0.06937843 0.09639086
0.017622031 0.12743726 0.008740422 0.048083387 0.011079716 -0.017301856 -0.11766095 0.043348137
0.125483 0.10026962 -0.07138661 0.08617299 -0.11087951 0.10418213 -0.16892515 0.014712992
0.028091673 0.049796302 0.0319289 0.05242544 -0.07924952 -0.13260348 0.08447678 -0.04013605
0.06593506 0.1743747 0.052872125 0.13592795 -0.058863018 0.07650608 -0.03266855 -0.064068705
-0.042404965 -0.08209181 -0.053869646 0.15920942 -0.09419424 -0.1493501 0.08012428 -0.11116034
0.06034598 0.18990926 -0.015118262 -0.14009479 0.040178467 -0.08523765 -0.016044213 -0.0775134
-0.12891687 0.12024239 -0.15257418 -0.15188906 -0.049077515 0.06705621 -0.0138555495 0.06746146
-0.09256351 0.03934861 0.237282 0.15053514 0.09453637 0.0835855 -0.16340277 -0.1422647
-0.120942935 0.016542135 0.15632251 0.035287246 0.0907518 0.047890402 -0.06974084 0.0029802797
0.12093671 0.13989317 0.025820585 0.12182073 0.06586097 0.04219087 -0.09742434 0.0071258056
0.100355655 0.15080132 0.07266634 -0.07783634 -0.21302855 -0.224977 -0.08696928 0.15950844
0.062067598 0.021469535 0.09313298 0.1231322 0.022124942 -0.17718853 -0.054169837 -0.07875547
0.022617895 0.013083067 0.0063858293 0.13909417 -0.08540044 -0.019399824 -0.056645643 0.08428422
0.046430737 -0.13604441 -0.08581178 0.076234646 0.0029205652 0.027022664 0.0004982435 -0.089715
-0.0048734765 -0.043168128 0.05847025 0.098676756 0.061617654 0.16357967 -0.04609284 -0.078928724
-0.10556095 0.093970954 -0.031043306 0.09038874 0.035293065 0.0064472454 -0.097565375 0.014321763
0.04222379 -0.13916317 -0.015664976 0.08719829 -0.0071452493 -0.10704541 0.19098659 0.09774101
0.17871758 0.1433912 0.0036232928 0.115932666 -0.04788519 -0.019608706 -0.018774468 0.03202267
-0.0885889 -0.036040246 0.15225387 -0.10707491 0.06688147 0.16392061 -0.11730834 0.0001747555
0.01118109 0.10128519 0.13072954 -0.16585623 0.07900439 0.035222918 0.017048657 0.030586062
0.0039368565 -0.13241406 0.16240664 -0.015648613 0.03708862 0.09954954 0.09680225 -0.067746185
0.03008921 0.18638703 0.20014638 0.06715812 0.09939319 -0.10306193 -0.1479775 0.022910537
0.0045102285 0.05007163 -0.09468027 -0.019552568 -0.05080935 0.049065128 0.10143014 -0.007987349

encoder.encoder_layer.2.residual_stack.Residual_layers.conv_one.bias f4 [8]
00000000: 4ab5 17be f286 623b bf8d b83d 6b11 d93b
00000010: 1641 bb3d 56be 83bc 9bac 9a3d 595c 18be
-0.1481525 0.0034565297 0.09011411 0.006624391 0.091432735 -0.01608197 0.07552453 -0.14878978

encoder.encoder_layer.2.residual_stack.Residual_layers.conv_two.weight f4 [8, 8, 1]
00000000: 80e2 68be 7c36 8fbd 004c 85be be1a 973e
00000010: fcbf b9be 61f2 ce3d f5e9 93be 1907 bcbe
00000020: c98c 893d 76ac 1abe 37f5 9fbe 4f76 c7be
00000030: 1a38 9d3e 468b 8d3e b151 9e3e d53e 56be
00000040: d5cd e4bd 6492 9b3e 20b8 ab3e ebf8 b83e
00000050: f4e3 083e 3c2a b53e b2b2 253e d462 55bd
00000060: 8a08 053d c3b9 d1bd 0432 243e 0157 4fbe
00000070: b61d a9bd 796a bcbe fc78 f73c e4fd 40be
00000080: 41d3 cbbe 31bc cd3c 2471 fcbd 26c2 a8be
00000090: 15c0 93be 6746 06bc 42fb 743e c53d 4abe
000000a0: b762 07be 78f2 8c3e 83f5 95be dbde ca3e
000000b0: 1ee5 61be 9e6a 343e 1093 cd3e 92d5 f0bd
000000c0: 0fa9 9a3e b50c 84be a87a 7cbe 7fe2 52bd
000000d0: d625 84be 505c 17be 4687 843e 0937 da3b
000000e0: 03a7 1d3e cef5 2bbe 1eb6 a8bd 1218 973d
000000f0: bd1b ae3e 2a65 a83e e8c0 123e b6f0 6fbd
-0.22742653 -0.06992814 -0.26034546 0.2951259 -0.36279285 0.10104824 -0.28889433 -0.36724165
0.06716306 -0.15104851 -0.31241772 -0.3895745 0.30706865 0.2764532 0.309217 -0.20922406
-0.11172072 0.30385125 0.33538914 0.3612741 0.13368207 0.35383785 0.16181448 -0.052096203
0.032478847 -0.10240509 0.16034704 -0.20248033 -0.0825762 -0.36799982 0.030209057 -0.18846852
-0.3980961 0.02511415 -0.12326267 -0.32960624 -0.28857484 -0.008195496 0.23923972 -0.19750126
-0.1322125 0.2752874 -0.29288873 0.3962315 -0.22060058 0.17618796 0.40151262 -0.11759485
0.30207106 -0.25790945 -0.24656165 -0.051485535 -0.25810117 -0.14781308 0.25884455 0.0066593927
0.15395741 -0.16792986 -0.08237861 0.07377638 0.34005538 0.32889682 0.143314 -0.05857917

encoder.encoder_layer.2.residual_stack.Residual_layers.conv_two.bias f4 [8]
00000000: 8d3f b83e e776 893e ce9d 3bbe 91b4 a93e
00000010: 76fc 183e ac8e 91bd 0171 50be ac04 b7be
0.35985985 0.26848528 -0.18321916 0.33145574 0.14940056 -0.071072906 -0.20355608 -0.35745752

encoder.encoder_layer.3.layer.weight f4 [16, 8, 5]
00000000: b54c 263d 6ff7 9f3c de21 713c bde8 993e
00000010: 71d0 e73d f8c0 113c 20e7 823d e2b2 55bd
00000020: 4b85 0ebe 2095 dfbd ffed 23bd 46c4 f8bd
00000030: c228 69bd 9396 18be 3aa6 55be 1741 18be
00000040: 3b3e 1a3e 3cbb b33d 53d8 97bd 6606 273e
00000050: 1bdd 193e a06b 193d fd22 823c 74ca 713d
00000060: 88aa ff3d e529 9cbd 3567 be3d 1c37 5dbe
00000070: 535e ff3d ea06 c7bc 7878 553e 06e2 52be
00000080: d9f9 30bd 7c8e a8bd 3b52 6c3c 682a 14be
00000090: 448b abbd e66b adbc 2db6 883c 5a3a 39bd
000000a0: 9c7c b83d a0bc f5bc f7f6 0a3e 29a0 833d
000000b0: 3684 883d 487a 2c3e 6e68 7c3c 26c2 a6bd
000000c0: 5466 523e 8fae 4c3b 9693 1bbe fe89 afbd
000000d0: f9cb 833d 1e02 2f3d 9637 b9bd 98e8 46bd
000000e0: 88c2 14bd 7577 bcbd 0285 e03d 19bd 583e
000000f0: 5942 073e 9dc3 8fbc f706 b5bc f351 bc3d
00000100: 0d4b 713e 9d6b c43d d157 51be 7644 273e
00000110: 7f4a c1bd 108d 8e3d 1d51 a43d 7ba9 0d3e
00000120: c403 b43d 5515 d5bd 7ce5 0bbe 50f8 bfbd
00000130: 09b7 a1bd 8167 cabd 13bf 013d 04cf e8bd
00000140: 6015 a3bd a313 dd3d 06e2 cabd 08f7 463e
00000150: b86a 513e 4d73 1f3d ec10 b53d 9272 b43c
00000160: 2a7c 8fbd a5d3 7cbc 5feb 9f3d ae94 f4bd
00000170: 6d7b f7bd cd52 29bd 1f7d 9f3d 4c8b ebbd
00000180: ea4d 2e3e 57c6 3d3e a313 84bd 20fd a93d
00000190: d14a 9b3d 1c36 cb3d 48b1 e93d 17f6 503d
000001a0: cbdb 28be bbbe dbbc e662 413e 2eaf 35be
000001b0: 37c6 bcbd 55a1 21be b49b 233d 1ec7 543d
000001c0: 9a77 f8bb 5c92 353e 9493 303e dc6b 2dbd
000001d0: fa3f f8bd 139f 15be c06f 10be 1cb8 abbd
000001e0: d375 33bd 3a8b de3c c699 4e3e 3d79 2ebe
000001f0: 2a93 29be 6c64 b33d 7dfc 80bd 6ba4 b7bd
00000200: b926 3cbd 727e 2ebd e4ed d3bd e813 15bd
00000210: 45f9 853c 53c1 153e c2a5 523e aa1a f63c
00000220: f526 d0bd 3574 4c3c 1ed3 b3bd 4753 3d3d
00000230: 030d 8e3d 7fa2 42be 972e 22bd cfb2 57be
00000240: d9fe 543e 3d99 0c3d 8a84 c1bc 93b8 133d
00000250: 45d9 183e 8847 d13d 8ae2 f33d 571d b9bd
00000260: 37c9 a43d c47e ae3c cd9e 3abe 65ab 063e
00000270: 89d6 533e f3de e03d 6cba a5ba 81f7 66bd
00000280: 6e1c ca3d f3ca 8cbd 0e8c 2d3e e25a 1cbe
00000290: ffbd 98bd 2f0f 47be e410 95bd b9a4 5bbd
000002a0: 4303 d43d 74f9 f6bd 4495 d33d d0e2 763e
000002b0: 41e1 323e 7b84 043e 8f4e 7a3e 1906 32be
000002c0: 2bd8 703c fde2 82be 5dc8 5fbe 78d4 8a3d
000002d0: f536 7f3d c0aa 513d 11cb 233c bc9f 5bbd
000002e0: a93a 3b3e 431a 9abc 38c7 ca3d 5822 a93d
000002f0: 31cb 4b3d 36bd 3e3e 3355 6abd 7dd6 223d
00000300: 4978 aabd 2f6e 1fbd 278f 16be 0023 4cbd
00000310: 7b64 d43d 0009 2a3e 3349 0f3e f526 50be
00000320: 7c1c e0bc 6490 6d3d 39c8 663e 402b 0a3e
00000330: dc09 053e cd6b 063e 56a0 fb3c 0e3a db3d
00000340: 3a29 e93d af5e 1f3e d9f0 803d 660b 933d
00000350: 3725 f7bd b765 203d e166 513d 9980 06be
00000360: 60ef 553e e617 cd3d ca70 7a3c 4b36 58bd
00000370: ba6b af3d e5d3 7c3e ac6d 013b f9b1 a7bc
00000380: 658c a1bd 6aaf 79bd b14f 1cbe adb8 303e
00000390: d109 063d d9d2 b43d 5d6f abbd 45fe a1bd
000003a0: b15c c63d 41fb d3bc 24e1 e4bd 07b0 acbd
000003b0: 7b16 02be feaa b5bd 02b7 2bbd 684c 0f3d
000003c0: 0cdf acbd f7bb 2dbc ae4f 973d 9cbc 52bd
000003d0: 97b1 64bd a4d9 eb3c 219c 28be f7a2 893d
000003e0: c9aa 38bd 38ce b53c 8e70 30bd f742 0fbe
000003f0: 57bc 25be f22d 23be baf6 5cbd 19c3 ec3d
0.040600497 0.019527165 0.014717547 0.30060378 0.11319054 0.008896105 0.0639174 -0.05217255
-0.13918035 -0.10917115 -0.040021893 -0.12146811 -0.056923635 -0.1490119 -0.20864192 -0.1486858
0.15062802 0.087759465 -0.074143074 0.16311035 0.15025751 0.037456155 0.015885824 0.059030965
0.12483698 -0.07625178 0.09297029 -0.21603054 0.12469163 -0.02429529 0.20846736 -0.20594034
-0.043207023 -0.08230302 0.014423902 -0.14469302 -0.08376172 -0.021169614 0.01668843 -0.045221664
0.09008142 -0.02999717 0.13570772 0.064270325 0.06665842 0.16843522 0.015405757 -0.081424996
0.20546848 0.0031231975 -0.15193018 -0.08571242 0.06435389 0.04272663 -0.09043805 -0.048561662
-0.036318332 -0.09202472 0.10962869 0.21165885 0.13208903 -0.01754933 -0.022098048 0.09195318
0.23563786 0.09590838 -0.20443656 0.1633471 -0.09438037 0.06960499 0.08023284 0.13834183
0.08789781 -0.104044594 -0.1366176 -0.09373534 -0.07896239 -0.09883023 0.031676363 -0.1136761
-0.07963061 0.10794761 -0.09906392 0.19430172 0.20450866 0.03892832 0.08841118 0.022027288
-0.07006104 -0.015431319 0.07808565 -0.11942421 -0.120840885 -0.04133873 0.07787537 -0.11501178
0.1702191 0.18532692 -0.06449058 0.08300233 0.075826295 0.0992243 0.11410767 0.05101594
-0.16490094 -0.026824346 0.18885383 -0.17742607 -0.09217494 -0.157842 0.039943412 0.051947705
-0.007582617 0.17731613 0.17243797 -0.04233919 -0.121215776 -0.14611463 -0.14105129 -0.083847255
-0.043813538 0.027165998 0.20175847 -0.17038436 -0.16560045 0.08759388 -0.06298158 -0.08966907
-0.045935366 -0.042601056 -0.103481084 -0.036395937 0.016354213 0.14624529 0.20571044 0.030042011
-0.101636805 0.012478878 -0.08780502 0.046221998 0.069360755 -0.190073 -0.039595213 -0.21064304
0.20800342 0.034325827 -0.02362277 0.036064696 0.14926632 0.10218722 0.11908443 -0.09038799
0.08046191 0.021300681 -0.1822464 0.1315132 0.20687307 0.10980024 -0.0012644059 -0.056388382
0.09868704 -0.06874647 0.16947958 -0.15269044 -0.07458114 -0.19439386 -0.07278612 -0.05362389
0.103521846 -0.12059298 0.103312045 0.2410996 0.1746874 0.12941162 0.2444403 -0.17385139
0.014699976 -0.25563803 -0.21853776 0.067788064 0.06230827 0.05118823 0.009997145 -0.05361913
0.18284096 -0.01881135 0.09901279 0.08258504 0.049754325 0.18626866 -0.05721016 0.039755333
-0.08323724 -0.03892344 -0.14703046 -0.049838066 0.10370728 0.16604996 0.13992767 -0.20327361
-0.027357332 0.05799903 0.22537316 0.13493061 0.12992042 0.1312706 0.030716103 0.107044324
0.113848165 0.15563463 0.06295938 0.071799085 -0.12067645 0.039159503 0.051123504 -0.13134994
0.20892096 0.10014324 0.01528568 -0.052786153 0.08565469 0.24690206 0.0019749207 -0.020470606
-0.07888106 -0.060958304 -0.15264775 0.17257948 0.032724205 0.088292785 -0.0837085 -0.07909826
0.09685648 -0.025876643 -0.11175755 -0.08432012 -0.12703888 -0.08870505 -0.041922577 0.034984976
-0.0844098 -0.010603896 0.073882446 -0.051449403 -0.055833425 0.028790303 -0.16465808 0.06720536
-0.04508475 0.02219306 -0.04307609 -0.13990389 -0.16185127 -0.15935495 -0.053946234 0.115606494

encoder.encoder_layer.3.layer.bias f4 [16]
00000000: f164 6d3d e70a 57bd d1fc 2e3e b20b 72bd
00000010: 062d dfbc 1c7c 70bd 9917 d53d 2b5f 31be
00000020: a648 ec3d 909e f13d 9a69 483d 53d7 54bd
00000030: 6648 e2bd 65f9 083e fe01 023e 96e2 433b
0.057957593 -0.05250063 0.1708863 -0.059093185 -0.027243149 -0.05871211 0.104048915 -0.1732146
0.11537294 0.117978215 0.048928834 -0.05196316 -0.11048965 0.13376386 0.12696072 0.0029889694

encoder.encoder_layer.3.residual_stack.Residual_layers.conv_one.weight f4 [16, 16, 7]
00000000: 9ab4 063d 6b1c 00be b9c3 d9bd 6e2a e9bd
00000010: b74a 8f3d 7c8a 38bd 32dd 07bb 744c cebc
00000020: db98 d5bd cdff 97bc 8d39 8abd 8441 053e
00000030: e177 0ebd 57a4 cabd 29a9 76bd e92d 6aba
00000040: 4186 253c 1ebd 1a3e 35b1 583d 5fd5 0e3d
00000050: 26f5 2f39 fd41 93bc 23b0 a63c 3f4e 5ebc
00000060: 64a9 5cbe 069f c1bd a130 37bd 4099 66bc
00000070: 0d55 29bd 0cdf 9fbc c8e3 8b3d c7f0 4dbd
00000080: 5a43 8cbc 8875 d0bb 9750 383d e249 a63d
00000090: 5275 14bc d5f6 d1bc 6f06 883c c7b6 c33d
000000a0: 9b36 82bd 9eb9 223c 30de c93b eaca 4cbd
000000b0: abd1 243e c7be 6b3d 21db 7b3d 3008 5ebd
000000c0: 2f8b 1dbd db1b 543d 9990 4d3d b036 ddbd
000000d0: 5429 8abd a669 373d 221e 823d d9b6 45bd
000000e0: 8909 91bc 85a8 393d 686f e73c cc38 70bc
000000f0: d197 2abd 32ad d6bd 208a be3d 1029 80bd
00000100: 3ce8 0dbe 8991 f93d aaa6 62bd b9b0 b2bd
00000110: 3099 b0bd 2858 0e3b b3e9 823d 6ba6 923c
00000120: c073 253d 04b0 8d3d d6f9 093d 1f6c 00bd
00000130: 0922 42bd d6dc d43d 16fe e1bc 9e98 4f3d
00000140: 18ce c0bd 892e 103e 636d f9bc 0bc5 cdbc
00000150: 94bd 2e3d bc0b 7ebd 0227 593d 95c2 18be
00000160: 073a 3d3d a682 8fbc 6ea3 9f3c 3029 e73a
00000170: 55fa 58bd cb25 9a3d 238e a03c 5e14 773d
00000180: 6312 babd cb75 dc3b 8c42 8cbc b499 b5bd
00000190: 43a2 b0bb 0292 093e 5a7b 2ebe d5b6 9cbd
000001a0: e188 813d 9b04 04bd 73bb 763d d6c0 653d
000001b0: f35d df3d 3025 d83d e084 b5bd f3d8 833d
000001c0: 9596 db3d 6840 4a3c 6994 21bc e7fd 1fbe
000001d0: 5712 67bc 92c1 89bd c183 0e3d 9a59 d03c
000001e0: 40da cb3d 57b6 873a 9339 4a3d 1b0b 9cbd
000001f0: eb80 f2bb c847 44ba c5eb cb3b 47fb ac3c
00000200: 3078 843d dfbb bcbd 0982 cd3d f9bb d93d
00000210: 4d76 593d b291 62bd c977 66bd b6d4 b8bd
00000220: 32c3 283d 061c a7bd a387 453d 30bc 7d3d
00000230: fd04 9f3c e3fb 87bd 0c09 1d3d b4ca 03be
00000240: 1e47 d23d 39e9 c2bd 1aa8 c7bd e532 39bd
00000250: 09a1 25bb cc37 30bc e386 e7ba e3af b7bd
00000260: e655 093c 789d 1abb 8dbf 843d 312e 8a3d
00000270: bd56 d73d cf4e 943d 7d32 91bd 2a21 d13c
00000280: 9504 35bd 0207 9e3d 8dee 56bd edc9 10bd
00000290: 9f07 233e 4e61 e23d 1ee9 35bd a78e 57bd
000002a0: 39d4 1f3d 116b a63d 9e63 643c a013 ec3d
000002b0: a337 4b3d aa0f 1fbb 329b 82bc f05e 9b3c
000002c0: f8b5 9d3b 98f1 333c 90b9 263e 3dfe 9ebd
000002d0: 5a06 493d 9c90 5c3d dca5 9bbc ce01 f7bd
000002e0: e33f b33d 474f c33c b1a7 22bd e46d 273d
000002f0: b965 2e3d b7c6 543c 891d f4bb e1cf 24be
00000300: fed6 583d e84f 3c3c 32c1 a1bd 40c4 8f3c
00000310: c0ce 8b3d 53af 7bbd 6de5 70bd f9ec 50be
00000320: b569 b43d 23ac 70bc b72b 15bd 3cb5 e7bc
00000330: 5487 b1bd 56ea 20be ea96 643d f2a1 03bd
00000340: 4497 6dbd e480 cfbc a040 653d 7919 9fbd
00000350: 5db8 f2bb f02d ad3d 98fc 363d 7985 873c
00000360: b270 d5bd f17d c0bd c007 873d 4a25 14be
00000370: c813 68be f7e9 683d d86a 9fbd d766 c73c
00000380: 2317 a73d 3208 01be e8ca a2bd 46ea 033e
00000390: fe32 ba3d 42e7 2bbd caf7 933d 6c15 40bd
000003a0: 5c95 0bbe c36b 113d 9259 38be 4810 05bd
000003b0: 93c8 da3c bb0b b7bd c9e4 1abc 3537 9bbd
000003c0: 1298 29be e20b 243d 5220 3c3e 6706 fabd
000003d0: f041 dbb8 7f79 a4bd fd75 1a3e 47ca 4f3d
000003e0: 885f a7bc 7be2 8bbd fb29 d63c 275b 753d
000003f0: 5f24 ac3c 15ad 433d be4d fd3d 9e73 fa3c
0.03288708 -0.1251084 -0.10633034 -0.11385046 0.069966726 -0.045053944 -0.0020731208 -0.02518294
-0.104295455 -0.018554593 -0.06749258 0.13013273 -0.034782294 -0.098946266 -0.060219917 -0.0008933233
0.010102809 0.15111205 0.052903373 0.034871455 0.00016780625 -0.017975802 0.02034766 -0.01356846
-0.21548992 -0.094541594 -0.04472411 -0.014074624 -0.041340876 -0.019515537 0.06830555 -0.05027845
-0.01712196 -0.006361667 0.04499873 0.08119561 -0.0090611745 -0.025630394 0.01660463 0.095563464
-0.063580714 0.00993195 0.00616052 -0.0499982 0.16095607 0.057554986 0.061488274 -0.054207027
-0.038462814 0.051784378 0.050186727 -0.108014464 -0.06746164 0.04477849 0.06353404 -0.04827008
-0.017704742 0.04532673 0.028251365 -0.014661979 -0.04164869 -0.10482253 0.09303689 -0.06257832
-0.13858122 0.12185962 -0.055334724 -0.087251134 -0.08622968 0.0021720026 0.06392231 0.01790162
0.04039359 0.06918338 0.033685528 -0.031353112 -0.04739574 0.103936836 -0.027586978 0.050682656
-0.09414309 0.14080252 -0.030447667 -0.025118371 0.042661265 -0.06202291 0.053015716 -0.14917977
0.046197917 -0.017518353 0.019487109 0.0017636176 -0.05297311 0.0752674 0.019599026 0.060322158
-0.09085538 0.006727909 -0.017121576 -0.08867207 -0.005390437 0.13434604 -0.17039242 -0.0765206
0.06324936 -0.032230955 0.06023736 0.056092106 0.10906591 0.10553968 -0.088632345 0.06437864
0.107220806 0.012344457 -0.009862044 -0.156242 -0.014103494 -0.06726374 0.03479362 0.02543335
0.09953737 0.0010354024 0.049371313 -0.07619306 -0.007400622 -0.0007487503 0.0062231743 0.021115912
0.064682364 -0.09215521 0.10034568 0.10631556 0.053091336 -0.055314727 -0.05626658 -0.090249464
0.041201778 -0.08159642 0.048225056 0.061947048 0.019411558 -0.066398405 0.038338706 -0.12870294
0.10267471 -0.0951714 -0.0974886 -0.045214552 -0.0025272986 -0.0107554905 -0.0017664101 -0.089690946
0.008382296 -0.0023592394 0.06481848 0.067470916 0.10514591 0.07241594 -0.07089708 0.02552851
-0.044193823 0.077161804 -0.052473594 -0.03534882 0.15920876 0.11053716 -0.04441177 -0.05262628
0.03902075 0.0812589 0.013939766 0.11527181 0.049613606 -0.002427081 -0.015943144 0.018966168
0.004812952 0.010982893 0.16281724 -0.07763336 0.049078323 0.053848848 -0.018999986 -0.12060891
0.0875242 0.023841513 -0.039710704 0.040876284 0.04257748 0.01298683 -0.00744981 -0.16094925
0.052939408 0.0114936605 -0.07898177 0.017549634 0.06826544 -0.0614465 -0.058812547 -0.20402898
0.088092245 -0.014689478 -0.036418643 -0.028284661 -0.0866839 -0.15714392 0.055807985 -0.032136865
-0.058005586 -0.025330015 0.055969834 -0.077685304 -0.0074072317 0.084560275 0.044674486 0.016543137
-0.104218856 -0.093990214 0.06593275 -0.1446735 -0.22663796 0.05686375 -0.07784051 0.02434103
0.0815871 -0.12600783 -0.079488575 0.12882337 0.09091757 -0.04196859 0.072249964 -0.04689543
-0.13631195 0.03550316 -0.18002918 -0.03248623 0.02670697 -0.08937784 -0.009453961 -0.07578889
-0.16561916 0.040050395 0.18371704 -0.122082524 -0.000104550156 -0.08030986 0.15084071 0.050730016
-0.020431295 -0.06830307 0.026143065 0.059901383 0.021013437 0.047772486 0.12368344 0.030572709

encoder.encoder_layer.3.residual_stack.Residual_layers.conv_one.bias f4 [16]
00000000: 756c ab3c 9312 ec3d d1c2 81bd d580 efbc
00000010: 4392 b8ba f827 e1bb 9f0d ad3d 9fe1 9cbd
00000020: 6a36 823d 1089 a13d 4ea6 53bd 82b5 c1bc
00000030: c99f 123c ad24 9d3b 1b4a 8bbd 036f 653d
0.02092574 0.1152698 -0.063359864 -0.029236237 -0.0014081675 -0.0068712197 0.08449864 -0.07660221
0.06358035 0.07887471 -0.051672272 -0.02364612 0.008949229 0.004795632 -0.06801244 0.056014072

encoder.encoder_layer.3.residual_stack.Residual_layers.conv_two.weight f4 [16, 16, 1]
00000000: 77f8 6fbe 3c7e 1d3e 8972 933d 8225 0e3e
00000010: f15e 64bc 8dfa c6bd edf1 d13d 571e 123e
00000020: 8041 b33d ee4d 3b3d 25e8 7ebe 9add 4ebe
00000030: 19b3 adbd d098 983e a053 f1bd 3741 343e
00000040: 33e8 5ebe 73ee f63d 6cef 36be 6903 773e
00000050: 7f6e 49be 663f dd3d b6b7 3f3d 89d7 073e
00000060: 5844 97bb beeb 43be 9cd3 61be 723d 393e
00000070: 10ad fabd 2897 fd39 0b74 8fbd 434f 293c
00000080: e8de 083e b07c 1abe 5fd3 9c3d 7be4 f8bc
00000090: 790c b8bd ad28 323e 8fa8 bebd 1862 5bbe
000000a0: 654a 303e 7011 753e 4118 18bb 9fa9 3abe
000000b0: 7b5a 2a3c 5e5f 7d3e cc37 683d 6673 2d3d
000000c0: 91be 3ebe ddef 933d c934 1cbe 359f 0f3e
000000d0: b6ce a9bd f7b7 f43c 75ca 073d 49ed 0cbe
000000e0: e3fb 363e 7973 fabd 33ce 3dbe 1801 3dbe
000000f0: 9b9f 383d 6ed9 30be d284 ca3e a293 84be
00000100: 77e3 2dbe ec3c ea3c 2302 133c 5ecb 29be
00000110: c40b 22be 4c22 6d3e c82b fcbd 8cf6 c03e
00000120: ec9b 7ebe 1fea e33d b811 6a3e f0f4 993d
00000130: 8407 123e 1982 97be cb4b 163d 9fa6 52be
00000140: 9711 ca3e 55fe 333e 064e 6abd 20f2 6abd
00000150: b651 053e 7901 143e 2b15 bd3d c0b4 833e
00000160: e7be 3ebc 2e7c 083e 60d0 923e 9e55 48bd
00000170: 49cc b4be 29c1 073e 757c 0bbe 5d80 963e
00000180: 5cde 2a3c 3da2 973e e915 1f3e 9e36 eebd
00000190: 06aa 2c3e 735c 26be cda6 32be b398 a1bd
000001a0: a231 b9be 5e33 493c e4a8 663e fb75 7b3e
000001b0: 95e8 9ebb b65f 1f3e da9c 02be ea6a 6c3d
000001c0: be62 7bbc a6b9 233e be13 5ebe 8c03 403e
000001d0: 0849 123e 4a48 be3e 7b05 4b3e 0e16 d83d
000001e0: 51f7 a03d 4196 4abe a11e c73e 1dab acbd
000001f0: 0607 6f3d a048 82be 03ea 973e 3eba 803d
00000200: 9590 76be 27ad 5abe acf1 7dbe 48df 14be
00000210: 0ad5 e7bd 8118 9cbc 8174 533e a23b bcbd
00000220: 9811 893e ae7b 42bd 96c7 8ebe 41f6 b63d
00000230: 1e63 023e 48fa 403e 79d6 2a3e 11d7 233e
00000240: 893a 52be b443 38bd e2dc 36bc cd89 25be
00000250: a7b6 303e a373 dfbd 0351 103e 2b4a f1bd
00000260: 0b5a 96be ef81 7cbc ecb1 85be 3eab 333e
00000270: d4ec b73e 61b8 ec3d c4e2 853c b92e 92be
00000280: bfd5 933e c9e4 543e a381 463e 6f8e 64bd
00000290: 40ad 343e 67a4 39be ba47 2f3e a6ff 053d
000002a0: a410 243e 10a9 e53d 88c7 50be 0c0a e33d
000002b0: 673a 823e 1822 9e3e 01d0 863e 0ec7 4b3e
000002c0: 4752 6d3d ec22 383e dd53 1dbd d1c5 95be
000002d0: 96ae 5c3e 5c48 0dbd df3d 1abe 9a1b 8c3e
000002e0: b546 14be a608 27be 2dd6 033e 7e11 91be
000002f0: 21b9 44bd 545e 3a3e 4ecf 643e b8e1 4f3e
00000300: 5b56 3fbe 4a07 abbe 0452 b8bd 1d25 63bd
00000310: 74ab 11be ea43 2d3e 6e0f 283d 3aad 813e
00000320: a685 3ebe df9a 563e d1b8 82bd 44d4 063e
00000330: 3b8a 8b3e b398 083e 467d e43d ebfc 05be
00000340: 9741 2c3e 6750 8d3e 74f8 973e 555a 433d
00000350: 0677 a03e 948c 4c3e 53e5 bf3d 713b 41be
00000360: b509 41ba eb02 adbe 308d 20be 3dad adbd
00000370: 1a69 543e d165 f0bd e1a9 ad3e 93ba b13d
00000380: d507 373e 369d 1ebe 1e16 473e acc3 b83d
00000390: 56fb 853e 7abe 503d f7ba 51be 53f8 8d3e
000003a0: 4fa0 0fbd 4ca7 223e add0 873e 1fbc 18bd
000003b0: 939e 3fbe 1419 083e 8fde 3d3e 5725 6abe
000003c0: 0d8c 9b3e 4db1 89be df62 7c3e 668c a23e
000003d0: c66c 00bd c993 c8bd d928 9c3e 6ff7 d4bb
000003e0: 6502 8b3e 0d41 82bd 6f1e 04be a57e a23e
000003f0: f851 673d b3ef 3e3e 8ecb 30be 90b0 72bd
-0.23434626 0.15380186 0.0719958 0.13881496 -0.013938651 -0.097157575 0.10251222 0.14269386
0.087527275 0.045728616 -0.24893244 -0.20201722 -0.08481426 0.29804087 -0.11783528 0.17603002
-0.21768264 0.12057199 -0.1786477 0.24122395 -0.19671057 0.10803108 0.04680606 0.13265814
-0.0046163015 -0.19132897 -0.22053379 0.18089846 -0.1224004 0.0004836854 -0.07004555 0.010333839
0.13366282 -0.15086627 0.07657503 -0.030382385 -0.08986754 0.17398329 -0.09309494 -0.21424139
0.1721588 0.23932433 -0.0023207816 -0.18228768 0.010397549 0.24743411 0.056693837 0.04234638
-0.18627383 0.07223485 -0.15254511 0.14025576 -0.0829138 0.029872878 0.033152062 -0.13762392
0.17869525 -0.12229056 -0.1853569 -0.18457448 0.045074087 -0.17270443 0.3955446 -0.25893885
-0.16981302 0.028593503 0.008972677 -0.16581485 -0.158248 0.23157614 -0.12313038 0.376881
-0.24864167 0.111286394 0.22858322 0.07517421 0.1426068 -0.29591444 0.036693376 -0.20571373
0.39466545 0.17577489 -0.057203315 -0.057359815 0.13019451 0.14453687 0.09232553 0.2572384
-0.011642194 0.13328621 0.28674603 -0.048909776 -0.35312107 0.13257279 -0.13621695 0.29394808
0.010428991 0.29615965 0.15535702 -0.11631511 0.16861734 -0.16246204 -0.17446442 -0.07890453
-0.3617068 0.012280313 0.22525364 0.24556725 -0.0048495033 0.15563855 -0.12755147 0.05771915
-0.015343366 0.15988788 -0.21687219 0.18751353 0.14285672 0.37164527 0.1982631 0.105510816
0.07859672 -0.1978388 0.38890556 -0.08431075 0.058356307 -0.25446033 0.29670724 0.06285523
-0.24078591 -0.21355115 -0.24799222 -0.145383 -0.11319931 -0.019054653 0.20649911 -0.091910616
0.26771235 -0.04748123 -0.27886647 0.08933688 0.12733123 0.18845475 0.16683377 0.1600001
-0.20530142 -0.04498644 -0.011161061 -0.16165848 0.17257176 -0.10910728 0.14093404 -0.117817245
-0.29365572 -0.015411838 -0.26112306 0.17545792 0.35922873 0.11558605 0.016343482 -0.28551272
0.28874013 0.207904 0.1938539 -0.055799898 0.17644215 -0.18129121 0.17117205 0.03271451
0.16021973 0.11213887 -0.20388615 0.11085901 0.25435182 0.30885386 0.2633057 0.19900152
0.057939794 0.17982072 -0.038410056 -0.29252484 0.21550974 -0.034492835 -0.15062664 0.27364808
-0.14480098 -0.16311893 0.1287467 -0.28333658 -0.048028115 0.18200046 0.22344705 0.20300949
-0.18685286 -0.33404 -0.09000018 -0.055455316 -0.1422556 0.16920438 0.04103034 0.25327474
-0.1860567 0.20957516 -0.06382907 0.1316691 0.272539 0.133395 0.111567065 -0.13084762
0.16821896 0.27600405 0.29681742 0.04769357 0.31340808 0.19975501 0.09369912 -0.18870331
-0.0007363812 -0.3379129 -0.15678859 -0.08480308 0.20743218 -0.1173817 0.3391867 0.08678164
0.17874081 -0.15489659 0.19442031 0.090216964 0.26168317 0.050962903 -0.20481478 0.2772852
-0.03506499 0.15884131 0.26526394 -0.03728878 -0.18712835 0.13290817 0.1854193 -0.22865807
0.30380288 -0.26893082 0.24647091 0.3174774 -0.031353734 -0.09793813 0.30499914 -0.006499223
0.27150264 -0.06360064 -0.12902234 0.31737247 0.056474656 0.18646125 -0.1726515 -0.059250414

encoder.encoder_layer.3.residual_stack.Residual_layers.conv_two.bias f4 [16]
00000000: 5269 283e 6ba9 0bbd 8bdd 74be e9e5 f43c
00000010: 0756 1bbe e160 25be c30b a1bd 4ca2 7c3d
00000020: 66da c0bc 45a5 593e 1eb3 75be 60f2 253e
00000030: b296 5cbe 16ea 0a3d 3995 5fbd edc0 bb3d
0.16446427 -0.034097116 -0.23912637 0.029894786 -0.15169536 -0.16150238 -0.078635715 0.061678216
-0.02354164 0.21254452 -0.23994109 0.1620574 -0.2154186 0.033914648 -0.05458567 0.09167657
